bnn_model_64.pth (torch, 200758 bytes, 2 tensors)

fc1.weight f4 [64, 768]
00000000: 1f05 fd3b 95d1 1abd 46b1 ad3c 8525 403c
00000010: b8b9 1fbd 998c 06bc e696 b03c eb71 2b3c
00000020: 15ae 72bc 5c00 acbb 78c6 b4bc 7c17 29bd
00000030: c90d ca3c ea07 0bbd ced9 ae3c dd95 3ebc
00000040: 4ccd b03c 6ec8 8abb cf0c 1b3c 1d37 ffbb
00000050: 2c58 c6bb be33 983b 16a0 b8bc 9c58 ae3b
00000060: c203 29bd 6200 ae3c 8e38 d9bc 7eda 9b3c
00000070: 528a 9f3c ca19 f7bc d244 b93c 4a7c 15bd
00000080: 9d0a c8bc f0c8 88bb 21eb 5b3c 77a4 f3bc
00000090: e3dd 3ebc e4ea 593a f657 93bc 5f2b e63c
000000a0: e052 0d3d 3ea2 67bc 689a 15bd 3e13 b23b
000000b0: 0517 033d 57c2 843b 4202 ca3b bd85 0cbd
000000c0: 1179 b23c b662 22bd 1c47 dbbb 194a 613c
000000d0: ead4 8e3c 9653 c039 6af7 a1bc 71fa cdba
000000e0: cd4d 25bd be96 57bb 8cf0 13bd 774c 4cbc
000000f0: 5c14 8c39 365b 7c3c 8989 b6bc 9128 0a3c
00000100: 3826 883c 62b7 273d 741e 043d 7ac8 343d
00000110: aa1c 933d 03d0 fd3c 749c 8b3d d268 483d
00000120: 7fff 783c 487f da3c f4c4 273d 1b1c 523d
00000130: 8e83 e3bb 25a3 133d 3fa2 8d3b 7869 d43b
00000140: d871 e0bc edc4 9dbb bde8 09bc 5e71 acbc
00000150: eea8 32bd 67c2 46bc 029d 09bd 97a8 98bc
00000160: ce06 35bd 3f51 c73b 663b ca3b ce80 a63c
00000170: 1a0f f23c 18dc 3bbc 8c02 323c 08b7 873d
00000180: 6412 8f3d a29a 963d 66c0 b43d 8c81 503d
00000190: 6468 723c 266b 6d3d 669f 283d a1d0 9a3d
000001a0: 0067 2d3c 70b7 8f3c a445 943b 107b 8d3b
000001b0: 4776 2a3d 0f74 05bd ddc1 2dbd fc3c e5bc
000001c0: de9d 36bd 3448 3fbd fb1c 1dbd 18d1 9e3c
000001d0: 15ef 933c d5a7 d5b9 6b3e d5ba 2f44 fa3c
000001e0: 1546 9fbc 40cf 3e3d db3c b53d 4198 393d
000001f0: 9f50 813d 0412 cdbc 7d67 c8bb e375 523c
00000200: 9725 3a3d 5ea5 9a3a 97f6 e8bc e3e1 933b
00000210: c057 2d3d 4496 2b3d 7001 5d3d 7f90 2d3d
00000220: d342 5e3c a293 133d fd0b 60bb 845f 29bc
00000230: a802 b53c 23f8 0abd 7520 ddba 74f5 a6ba
00000240: 171a 023d 9876 29bc 6567 e23b c254 163d
00000250: 07e9 063d e55c 1e3c 10f1 c4bb e78e 0d3c
00000260: 1095 e93c 2267 01bc d86a 0e3d 4572 c2bc
00000270: 4af7 733d 4fd0 013b f1e9 83bc 75df e43c
00000280: 8e8e 9d3d 8837 433d e1b1 873c 1787 6d3b
00000290: abd2 683c f63b ea3c d28b 55bb e71a f5bc
000002a0: 0ecd 8ebc bec2 27bc 7ad3 75bb ff3b e2bc
000002b0: 2e6d bf3c 519c 393d ad7a f1bc efbb 383d
000002c0: 6367 9dbc a3b3 193c f8e7 d2bb 35bb 04bd
000002d0: 8e93 4f3a b0f9 b43b 42f4 a43c c59d 613d
000002e0: 1173 7d3d 81d9 843d 287f b13d 34a8 d23b
000002f0: 3f60 123d ae7a a93c 6a44 37bc 476f 9f3c
00000300: c4ef c43a 61df 893c 24ec d13b 4b0c d83c
00000310: d636 32bd 7704 373c 8f9d 8c3c 1647 aa3c
00000320: dc92 873c 5199 003c 8628 07bc ac4e 1d3c
00000330: f31e 74bd 1856 36bc a2ba 793c f5be 17bd
00000340: 019e 4bbd b987 ffbc 8516 19bd 5a98 ddbc
00000350: 2329 73bb 1ab1 6e3d a0c2 ee3d b53f 903d
00000360: a220 cf3c ac63 98bb f0b1 a8bd d43f 8b3b
00000370: e292 7d3d fc49 5abc 7a92 1ebd 99d8 c9bb
00000380: 89e9 c9bc 234d 6a3c 5d92 2fbd 46cd 01bc
00000390: 018d 3dbc 7d98 a03c edab e4bc 2486 ccbd
000003a0: c8e9 b4bb 059c e73c 614d cfbc fa2b 9cbd
000003b0: b6b6 52bb f93f 53bd 1ba6 833b 54e4 10bc
000003c0: c610 c2bd bbd5 73bd cc9d 433d 1a8a c03d
000003d0: a0d6 b23b 1103 0a3d fadb 353b d434 92ba
000003e0: 5ef9 6e3d f56e 723d 7d07 e2bc c148 12bd
000003f0: c8e4 5b3c 133b 02bd 1811 233b 7572 193a
0.0077215577 -0.03779753 0.021202695 0.011727695 -0.038995475 -0.008212232 0.021556329 0.010464172
-0.014812012 -0.0052490663 -0.022067294 -0.041282162 0.024664776 -0.033943094 0.021344092 -0.01163241
0.021582268 -0.004235319 0.009463503 -0.0077885524 -0.0060529914 0.00464484 -0.022537272 0.0053206217
-0.04126335 0.021240417 -0.026516225 0.019025084 0.019475136 -0.030163664 0.022615824 -0.036495484
-0.024419123 -0.0041743442 0.013422758 -0.029741509 -0.011649582 0.00083128945 -0.017986279 0.028096853
0.034502864 -0.014137803 -0.036524206 0.0054344228 0.032004375 0.0040514874 0.00616482 -0.03430723
0.021786245 -0.03964492 -0.0066918265 0.013750576 0.01743551 0.0003668337 -0.019771297 -0.0015714896
-0.0403574 -0.0032896246 -0.036118075 -0.0124694025 0.0002671805 0.015402606 -0.022282379 0.008432523
0.016619787 0.04094637 0.032255605 0.0441365 0.071832016 0.030982977 0.068169504 0.04892809
0.015197634 0.02667202 0.040959314 0.051296335 -0.006943173 0.03604426 0.0043223198 0.0064822994
-0.027398035 -0.004814735 -0.008417306 -0.021050151 -0.043618135 -0.01213131 -0.033597 -0.018635077
-0.044195943 0.0060826833 0.0061716316 0.02032509 0.029548217 -0.011466049 0.010864865 0.06626707
0.069859296 0.073537126 0.088257596 0.050904796 0.0147953965 0.057963513 0.04116764 0.07559324
0.010583639 0.017543525 0.0045249034 0.0043176487 0.041616704 -0.032581385 -0.04242121 -0.027983181
-0.044584148 -0.046699718 -0.038357716 0.019386813 0.01805834 -0.0004075157 -0.0016269212 0.03055009
-0.019442597 0.046584368 0.08849498 0.045311216 0.063142054 -0.025033005 -0.0061158524 0.012845489
0.045446005 0.0011798551 -0.028437896 0.004513012 0.042320013 0.04189135 0.05395645 0.04237413
0.013565737 0.036029465 -0.0034186833 -0.010337714 0.022095993 -0.033928048 -0.0016870635 -0.0012737946
0.031763162 -0.010343216 0.0069092982 0.036701925 0.032937076 0.0096657025 -0.006010182 0.008640028
0.028513461 -0.007898124 0.034769863 -0.023736129 0.059562005 0.0019808 -0.016102763 0.027938584
0.07693206 0.04766038 0.016564311 0.003624385 0.014210383 0.028593045 -0.003258456 -0.029920055
-0.017431762 -0.010239301 -0.0037510083 -0.027616499 0.02336749 0.04531509 -0.029477442 0.045101102
-0.019214338 0.009381208 -0.0064363442 -0.032405097 0.00079184107 0.005522929 0.020136002 0.0550821
0.061877314 0.06486798 0.08666831 0.006428743 0.03573632 0.020688381 -0.011185745 0.01946224
0.0015025069 0.016830148 0.006406324 0.02637305 -0.043509327 0.011170498 0.017164974 0.02078585
0.01654952 0.0078490535 -0.008249408 0.009601276 -0.059599828 -0.011128925 0.015242251 -0.037047345
-0.04971123 -0.031192647 -0.037374992 -0.027050186 -0.0037103377 0.058274366 0.116582155 0.07043401
0.025284115 -0.0046505537 -0.08237064 0.0042495523 0.061907656 -0.013323303 -0.03871391 -0.0061598537
-0.024647491 0.014300617 -0.042864192 -0.007922476 -0.0115692625 0.019603962 -0.027914012 -0.09986523
-0.005521033 0.028272638 -0.025305452 -0.07625575 -0.0032152361 -0.05157468 0.004017604 -0.0088435
-0.094758555 -0.05953 0.04775791 0.09401341 0.005457714 0.03369433 0.0027749524 -0.001115466
0.058343284 0.059187848 -0.027591461 -0.035713915 0.013421245 -0.03179462 0.0024882015 0.0005853542

fc2.weight f4 [10, 64]
00000000: 4850 853c 64b6 503e 2cbe 463e 3b22 723e
00000010: 9390 4c3d 805c cb3e 39e9 873e 4159 863e
00000020: d873 35be 071a 833e 2497 7dbe c527 193e
00000030: afb8 cb3d 42aa 5cbe e0db 79be 2c33 793e
00000040: ac9f 953e 45fe 453e 3b12 aebd 432c 8b3d
00000050: 6310 59be 9511 903e 23a5 503e f776 083e
00000060: 0531 ad3c 8397 6c3e 0465 9dbe 80d1 363e
00000070: 75fc 223e 6131 a1be 6cc9 9cbe 531c 973e
00000080: a5bb 97be 402e 973e 81e9 743e 49c2 f5bd
00000090: cc4b 8ebd 7072 15be 8111 45be 9729 c9bd
000000a0: 6f05 583e e444 7bbd 770d 2e3e 68b1 a03e
000000b0: d1d2 7c3e 9fc2 8d3e 0d20 cf3d fd16 0abe
000000c0: 159c 593e af6c c33e 1d09 e63d 4b2b 583d
000000d0: ab85 27be 15fb 1b3e 4526 c2bb 4881 ce3e
000000e0: 9127 823e 22f4 18be eea1 593e 9b26 7fbd
000000f0: 230a 973d 0c8a 81be 0234 7b3e a248 73be
00000100: 56b4 abbe f054 2bbe fc09 71be dcb8 7fbe
00000110: c057 7fbe f18d 2e3d faf5 8a3e c646 723e
00000120: 8e41 9f3e 73e9 11bd aff0 d53d 2052 82be
00000130: fbc6 94be 8cbe a0be 9696 793e f39a 6c3e
00000140: b35e 173e db59 6cbe a21b 263e 4dc6 81be
00000150: 350f 313e be08 13be 4bde a13c ec57 5fbe
00000160: 322b 6a3e 1617 c33d c495 8fbe 77c7 43be
00000170: 9db0 64be 87c7 60be 4093 79be 37d8 82bd
00000180: 085f fb3d df47 69be c1f8 7abe a415 8cbe
00000190: f833 823e 0592 3cbd 2bfa 4c3e 5d6d 603e
000001a0: dd80 8a3e b386 cfbc 0610 86be 66a7 4e3e
000001b0: 1020 45be 8086 44be 8430 2fbe de3f 4d3e
000001c0: 0c07 7d3d 9e8c e13d dab8 3d3d 1d17 843e
000001d0: 057c 413e 5b7f 85be e02b 203d e012 9abe
000001e0: e186 63be 42a6 e83d 061b 71be f887 883e
000001f0: d43c 833e d39d 9cbe 44ea b33e 1552 75be
00000200: 5fd2 9bbe 94dd 963e 5919 8a3e 488b bdbe
00000210: 60b1 413e a34d 82be 6fc2 3e3e 70ae febd
00000220: 017b d73c 1ce5 31be 422c bd3e 84b4 b43d
00000230: c5a9 97be 68fd 3a3e 0c50 923e 6c53 cebe
00000240: 7edc 87be 8ab3 a8be 2289 39be 0f09 923e
00000250: a95f 29be 4430 6e3e 0f78 92be 7d94 bcbc
00000260: db2b acbe 1b76 803e abf8 8ebe ae3f af3e
00000270: baed 523e cc0f 46be 5a33 a7be 48cd 6b3e
00000280: a708 e8bc 0040 a23e e7ab 563c c060 cbbd
00000290: 2960 b6be bab1 643d d215 4b3e 46f0 9c3e
000002a0: 9be6 ccbe 4ac4 993d 29b0 b03d c702 8a3e
000002b0: ccb2 513e 2c28 a3be 0d75 503d 8497 cc3e
000002c0: 3ef5 43bd 2dfc 143e 43a9 03be a20c c7be
000002d0: 2cce 87be e7c7 7cbd c2bd 8dbe 66c7 74be
000002e0: deee e63d 86ff 833e 958b 61be dc78 3f3d
000002f0: cc03 993e 4379 ab3e df03 a9be b0d9 973e
00000300: afd1 953e 7355 babc 5023 9d3e 177e ab3e
00000310: fc4d 1c3e 7fe8 2dbe 6433 67be bdd1 3c3e
00000320: 0f60 923e 71de a7be e9a2 813e 1703 aa3e
00000330: 9e4f 833e 63ed 07be 68f0 c83e 1b59 55be
00000340: c884 873d dfa9 d63d c00f 9c3e 5cdd 1d3e
00000350: e058 84ba 1f40 d5be 1b06 7ebe 0f53 bfbe
00000360: 2ead f0be fc80 453e e214 953e c7e7 a0be
00000370: d1a2 a93d 385f 0fbe 6c88 993e 8d19 c0be
00000380: 5ab2 55be 9670 abbd ef72 b3be de02 19ba
00000390: 731c 8e3e 94e6 a03c 31be b2be 1e7e 8cbe
000003a0: 6405 8f3e caef 0fbd fdd9 22be 9608 8bbe
000003b0: acb3 0bbd 338f 92be 1935 9d3e 7801 4a3c
000003c0: ab24 a53d 95ea 8d3e b813 16be def2 633e
000003d0: 03ee b5bd d6ac 73be d56d 71be c988 82be
000003e0: c791 a43e d3e7 bd3d 682a 74be 7bac a5be
000003f0: 0108 5f3d 0d23 bcbd 5974 4e3e 4fe5 b13d
0.016273633 0.20382077 0.19408482 0.2364587 0.049942564 0.3971901 0.26545122 0.2623997
-0.17719972 0.25605795 -0.24764687 0.14956577 0.09947335 -0.21549323 -0.24400282 0.24335927
0.29223382 0.19335277 -0.08499571 0.06795552 -0.21197657 0.28138414 0.20375495 0.13326631
0.021141538 0.23104672 -0.3074113 0.17853355 0.15916617 -0.31482986 -0.30622423 0.29513797
-0.2963535 0.29527473 0.239172 -0.119999476 -0.06948051 -0.14594436 -0.19244958 -0.09822386
0.21095823 -0.061344996 0.16997324 0.3138535 0.24689795 0.27687547 0.10113535 -0.13485332
0.21250947 0.38168857 0.11232207 0.052775662 -0.16359584 0.15232499 -0.0059249722 0.4033301
0.25420812 -0.1493688 0.21253178 -0.062292676 0.0737498 -0.25300634 0.24531558 -0.23758176
-0.33536023 -0.1673162 -0.23538965 -0.24972862 -0.24935818 0.042615835 0.2714079 0.2365981
0.31104702 -0.035623025 0.104462974 -0.2545328 -0.2905806 -0.31395376 0.2437385 0.23105983
0.14782219 -0.23081152 0.16221479 -0.25346604 0.17290957 -0.14358804 0.019759318 -0.21810883
0.2286804 0.09525888 -0.2804395 -0.19119059 -0.22332998 -0.21951114 -0.24372578 -0.06388896
0.12273985 -0.22781323 -0.24508955 -0.2736026 0.25430274 -0.046037693 0.20017307 0.21916719
0.2705144 -0.025332784 -0.261841 0.20181045 -0.19250512 -0.19191933 -0.17108351 0.20043895
0.0617743 0.11013149 0.046318866 0.25798884 0.18894966 -0.26073727 0.039104342 -0.30092525
-0.22219421 0.11359836 -0.23545465 0.26666236 0.25632346 -0.3058916 0.35139668 -0.23957093
-0.30433938 0.29465926 0.26972464 -0.37020326 0.1891532 -0.25449857 0.18628858 -0.12435615
0.02630377 -0.17372555 0.3694783 0.08823493 -0.2962171 0.1826073 0.28576696 -0.4029802
-0.2653541 -0.32949477 -0.18118718 0.28522536 -0.16540398 0.232606 -0.28607222 -0.023020023
-0.3362721 0.25090107 -0.27924094 0.3422827 0.20598498 -0.19341964 -0.32656366 0.23027527
-0.028324438 0.31689453 0.013102508 -0.09930563 -0.3562024 0.055833556 0.19832543 0.30652064
-0.40019688 0.07508142 0.0862735 0.26955244 0.20478362 -0.31866586 0.05089288 0.39959347
-0.047841303 0.14549322 -0.12857537 -0.38876826 -0.26524484 -0.06171408 -0.27683836 -0.2390419
0.11276029 0.25780886 -0.22025903 0.04674612 0.2988571 0.33490953 -0.33010766 0.2965827
0.29261538 -0.022745823 0.30691004 0.33494636 0.15264124 -0.16983221 -0.22578198 0.18439384
0.28588912 -0.32786897 0.25319603 0.33205482 0.2564668 -0.1327415 0.39245915 -0.20834772
0.06617123 0.10481619 0.30480766 0.15416473 -0.0010097288 -0.41650483 -0.24807017 -0.37368056
-0.47007126 0.19287485 0.29117495 -0.31426832 0.08283008 -0.14001167 0.29986894 -0.37519494
-0.20868817 -0.083710834 -0.35048625 -0.0005836914 0.2775608 0.019641198 -0.3491073 -0.2743997
0.279338 -0.03514079 -0.15903468 -0.27154988 -0.034106895 -0.28624877 0.30704573 0.012329452
0.080636345 0.27718034 -0.1465596 0.22260615 -0.08883288 -0.237964 -0.23577054 -0.25494984
0.3214247 0.092727326 -0.23844302 -0.32358155 0.054450992 -0.09186373 0.2016157 0.08686315
