bnn_model.pth (torch, 407663 bytes, 2 tensors)

fc1.weight f4 [128, 784]
000000 1c 07 d5 3c 2c 1b e5 3c 16 4b ad 3c 77 1a f2 3c
       0.026004367 0.027967058 0.021153968 0.029553635
000010 c4 e4 92 3c 90 56 de 3c aa db c0 bc 94 ba 02 3d
       0.01793135 0.027140886 -0.023542244 0.031916216
000020 7a 57 b4 3c d0 a9 90 bc fa 6e b5 bc f3 d9 5b 3c
       0.022014368 -0.017659098 -0.022147644 0.013418662
000030 8c ca ba 3c ee 01 5d 3c af 4f ca 39 db 84 01 bd
       0.02280166 0.01348923 0.0003858781 -0.03162084
000040 7c b9 ee bc 63 42 bf ba 3c 93 cf 3c e3 49 66 3b
       -0.02914118 -0.0014591928 0.025338762 0.0035139255
000050 66 04 09 bd 29 52 83 ba 8d 56 eb 3b 36 40 bd 3c
       -0.03345146 -0.0010018992 0.0071819485 0.023101907
000060 62 2f b6 3c ab 28 10 bd cd 9d 6f 3c aa b2 b6 bc
       0.02223939 -0.035195034 0.014625025 -0.02230199
000070 a9 d7 c9 bb 23 10 4e bc 0d 09 65 3c 2a 1c e3 bc
       -0.006159742 -0.0125770895 0.013979209 -0.02772339
000080 6f 9d 26 bc d1 2b ec 3c cf 99 02 3d 7c 73 37 bc
       -0.010169371 0.028829487 0.031884965 -0.011196967
000090 c9 da 05 bd 1f 03 2e 3c f4 89 4f bc 96 7f 8b 3c
       -0.032679353 0.010620861 -0.012667168 0.017028611
0000a0 01 56 ea 3b b3 84 27 3c b8 ef be 3c 5f c2 00 bc
       0.0071513657 0.010224509 0.023307666 -0.007858842
0000b0 77 44 89 3c fb cd e8 bc f3 5d fb 3b 96 46 8f 3c
       0.01675628 -0.028418532 0.0076711117 0.017489713
0000c0 15 29 a3 bc 59 5e 07 bd 42 d1 a9 bc ba 37 4d bb
       -0.01991705 -0.03304896 -0.020729665 -0.0031313733
0000d0 52 22 19 bd a8 2b 90 bc 6c d3 b1 bc 3c 71 b1 bc
       -0.037386246 -0.017598942 -0.02170726 -0.02166044
0000e0 9f 0c cb 3b d2 bc 6a 3c 37 75 a6 3c 17 7b 24 3c
       0.006196573 0.014327245 0.020319564 0.0100391125
0000f0 0f 8a 8a bb 41 5f 1c 3c d1 d8 c5 bc b1 15 85 bc
       -0.0042278836 0.009544195 -0.024151238 -0.016245695
000100 9a 84 02 bd 6d fe 16 bd a9 cd 31 bd 20 f6 97 bc
       -0.03186474 -0.036863733 -0.043409023 -0.018549979
000110 31 84 cb 3b e4 32 3c bd ae eb d6 bc 9c fa e4 bc
       0.006210827 -0.04594697 -0.026235428 -0.027951531
000120 cc 34 14 bd 68 80 0e bd 35 ba 0f bd b2 5c af bb
       -0.036183164 -0.034790426 -0.03508969 -0.0053516263
000130 8a 35 03 bd 3f 29 93 3c af 4c 0e bc fa a5 c6 bc
       -0.03203348 0.017964004 -0.008685275 -0.024249066
000140 d4 62 22 3c 62 b6 10 bd fa 57 f8 3c ed d3 ac bb
       0.009911258 -0.035330184 0.030315388 -0.005274287
000150 c3 60 a2 ba 4a db 93 bc a1 03 fe bc 17 00 28 3c
       -0.0012388456 -0.018048901 -0.03100759 0.010253928
000160 95 d8 16 bc 5f 29 9f bb a9 04 aa bb 77 36 b4 3c
       -0.009206911 -0.0048572267 -0.005188544 0.021998627
000170 fe 49 c0 3c 82 6e 15 bd 0b bf 9d bc 61 3f 97 3c
       0.023472782 -0.03648234 -0.019256135 0.018462839
000180 b7 91 b5 bc 33 0c 38 bc 20 09 44 3c c7 1d 8e bc
       -0.022164209 -0.011233377 0.011965066 -0.017348183
000190 21 c2 df bc 37 86 15 bc 6a 75 2c bd 25 5d 4c bd
       -0.027314248 -0.009126238 -0.042104162 -0.049893517
0001a0 cf 9c be bc da 55 00 3c 9b d3 98 bc f4 e8 32 3c
       -0.023268132 0.007832969 -0.018655589 0.010919798
0001b0 77 93 d6 bb f8 5a 12 bb 48 64 e7 bc 30 b1 8f bc
       -0.006548341 -0.0022332054 -0.02824606 -0.017540544
0001c0 75 aa b0 bb bb c0 d6 ba 5b 2c 88 3c 8c ee a2 bc
       -0.005391414 -0.0016384342 0.016622713 -0.019889139
0001d0 c2 4d 00 bd 0c 4a a0 3c 55 62 e7 3c b2 30 1e 3d
       -0.031324156 0.019566558 0.02824513 0.03862066
0001e0 ed 43 09 bc c1 cb 2e 3d db 68 d4 3b d9 ba dd 3b
       -0.008378011 0.042674784 0.0064822263 0.0067666587
0001f0 6d be b0 bc 84 9c 0d 3c 98 23 ca bc 79 f0 2e 3c
       -0.021575177 0.008643273 -0.024675176 0.01067745
000200 55 fd 69 bc 64 3f 23 bd a6 f5 8b 3c b9 4c 31 bd
       -0.0142815905 -0.039855376 0.017084908 -0.04328606
000210 26 0e 72 bc 21 2e 19 bd 46 0c 23 bd 7a d5 1b bd
       -0.014773881 -0.037397508 -0.039806627 -0.038045384
000220 01 61 0b bd b0 fc 96 bb df 17 a9 3a b6 94 b3 3c
       -0.034028057 -0.0046077594 0.0012900791 0.021921497
000230 85 8c 42 3c dd da 60 3c 83 8d a7 3c 63 89 ca bc
       0.011874323 0.013724056 0.02045322 -0.024723714
000240 7b c0 42 3c 1f 1e bd 3c a9 85 0b bc 71 37 30 3c
       0.011886711 0.023085652 -0.008515754 0.010755406
000250 54 e2 e6 bb 95 f2 83 bb 57 98 ff 3b 56 04 20 3d
       -0.0070460234 -0.0040267208 0.0078001427 0.039066635
000260 fe 9a eb 3c 3a f8 68 3c 29 1d 2a bd 2d 18 f3 bc
       0.02876043 0.014219338 -0.041531716 -0.029674614
000270 d3 78 8c bc 07 14 2b 3c c7 15 99 bc 94 f2 22 bc
       -0.017147457 0.010441787 -0.018687142 -0.00994553
000280 8c a5 8c 3c 03 ba d4 bc 4e e7 62 3c 04 e9 2f bd
       0.017168783 -0.025967604 0.013849093 -0.04294683
000290 19 6b bd bc 00 39 be bc 85 cf 0f bd b1 68 cd bc
       -0.023122357 -0.02322054 -0.035110015 -0.025074335
0002a0 84 57 bf bc 8d bc f0 bc 7d 91 f6 3c 19 d3 10 3d
       -0.02335716 -0.029386783 0.030098671 0.03535757
0002b0 dc d9 67 bc a6 b5 83 bc 96 9b 2f bb 40 14 d6 3c
       -0.014151063 -0.016077828 -0.0026795617 0.026132703
0002c0 71 bc 15 3d 3c 52 30 3c 0f 2a 1a 3d 91 b8 02 3d
       0.036556665 0.010761794 0.037637766 0.031914297
0002d0 83 cd 01 3c 2d 2d 2c 3d f7 20 07 bc 86 83 3e 3d
       0.007922533 0.04203527 -0.0082476055 0.04651215
0002e0 c4 90 3d 3d 82 56 45 3c 72 99 38 3d bc db fa bb
       0.046280637 0.012044551 0.04506821 -0.007655589
0002f0 f6 a9 2e bb 3c f1 ac 3c f4 98 78 bc b2 e6 e9 bc
       -0.0026651598 0.021111123 -0.015173186 -0.028552387
000300 54 90 31 bc 33 b8 2b bc 5d af 04 bd b2 53 aa bc
       -0.010837633 -0.010480928 -0.032393802 -0.020791862
000310 2d 9a f0 bc 6c d0 10 bc 58 b9 9c 3c 25 46 8b 3c
       -0.029370392 -0.008838754 0.019131348 0.017001221
000320 81 ff c7 3c 4a 4c a9 3c fd a8 0d 3d 7d ff 50 bc
       0.024413826 0.02066626 0.034584988 -0.012756226
000330 71 cb 8f bb 64 a3 e2 3c bd c5 40 3b 55 50 10 bc
       -0.004388266 0.027665801 0.0029414736 -0.008808215
000340 50 05 80 bb 76 13 5c 3d 15 d2 b0 3d b0 35 15 3d
       -0.0039068833 0.053729497 0.0863382 0.036428154
000350 85 db 97 3d 01 3f fd 3c b5 b8 66 3d 18 33 02 3d
       0.07414917 0.030913832 0.056328494 0.031787008
000360 5e b8 d5 ba a9 ac ed 3c a3 36 01 bc 4f 36 6e 3b
       -0.0016305556 0.029012995 -0.007886562 0.0036348288
000370 d9 41 84 3c 21 4d ae 3b 09 c5 a3 ba 6e 89 fd 3c
       0.01614468 0.005319253 -0.0012494634 0.03094932
000380 58 07 04 3d 69 85 10 bb 45 17 09 3d 58 13 8d bc
       0.032233566 -0.0022052175 0.033469457 -0.017221138
000390 61 6a b9 bc 74 18 b8 3c 33 25 42 3b c2 9d 07 bd
       -0.022633733 0.022472598 0.0029624223 -0.033109434
0003a0 7a 84 bc 3c 67 85 00 3d 76 5a 39 3b e6 93 f8 3c
       0.023012388 0.031377222 0.0028282679 0.030343961
0003b0 db 35 51 3c 78 f7 77 3d c2 1b a2 3d a1 80 86 3c
       0.012769188 0.06053874 0.07915451 0.016418757
0003c0 9e c0 2a 3d 49 30 c3 3c 5a 01 45 3d 9a 84 2f bc
       0.0416876 0.023826735 0.048096992 -0.010712767
0003d0 cf be 8b 3c 9a e8 03 3d 87 4d 99 bc cd f7 21 bc
       0.017058758 0.032204248 -0.018713726 -0.0098857405
0003e0 be 51 ba bc 8b 52 42 3c 25 e3 0f 3c 62 d2 d5 bc
       -0.022744056 0.0118605 0.008782183 -0.026101295
0003f0 89 d0 a1 3c 74 5a b0 bc e5 56 16 3c 0f 0d 83 3b
       0.019752758 -0.021527506 0.009175991 0.0039993594

fc2.weight f4 [10, 128]
000000 5f ac 85 3d 61 21 b9 bc 62 04 16 3e 5b 03 a5 3d
       0.06527018 -0.022598924 0.1465011 0.08057281
000010 a9 94 de 3d 28 d3 d4 bd d4 29 25 3d 63 48 03 bd
       0.108681984 -0.10391837 0.040323094 -0.032051455
000020 f6 b7 08 3e 94 3a d3 3d fa 09 aa 3c 75 88 e6 bd
       0.13351426 0.10313907 0.02075671 -0.11256496
000030 a5 a1 00 3e 1e fb a8 3d 7f ac 54 bd c2 68 05 3e
       0.12561662 0.08251022 -0.051922318 0.13028243
000040 6c 47 e9 bd c8 ef 17 be 97 ea 9d 3d e9 57 eb 3d
       -0.11390576 -0.14837563 0.0771076 0.11491377
000050 e5 75 f9 bd 6a 9b 86 3b 72 8c 3e 3c 2e 50 dc bd
       -0.1218069 0.0041078823 0.011630164 -0.107574806
000060 61 9c 03 3e 80 1b 02 be 3f 6d 11 be ae 76 04 3e
       0.12852623 -0.12705803 -0.1420183 0.12935898
000070 66 09 45 3d 63 61 dc bd 9f 13 8f 3d 7d 6c b2 bd
       0.048104666 -0.107607625 0.06986164 -0.08712099
000080 7f 60 f3 bd 68 90 95 3a 3e dd 86 3d 74 41 a6 3d
       -0.118836395 0.0011410834 0.06585167 0.08117953
000090 42 c9 c9 bb 7c 2b 5d bc ef a0 00 be 66 e4 e9 3d
       -0.006158025 -0.013499137 -0.12561391 0.11420517
0000a0 42 c4 9e 3d 7d 66 b3 bd 59 f3 07 3e c8 42 aa bd
       0.07752277 -0.087597825 0.13276424 -0.08313519
0000b0 bc bb 03 3e dc 63 b4 bd 35 b4 20 be ea 17 7f bd
       0.12864584 -0.08808109 -0.15693744 -0.062278666
0000c0 f1 95 85 bd d1 f0 13 3c 60 20 92 3d c4 d0 43 3c
       -0.0652274 0.009029583 0.07135081 0.011951629
0000d0 b4 cb c3 bd c8 83 1d 3e f3 5a c8 3d 90 2d 18 bd
       -0.09560338 0.15382302 0.09782972 -0.037152827
0000e0 85 0c ae 3d 8c 12 b9 bd fa 17 80 bd 57 cb 76 3d
       0.08498482 -0.09036741 -0.06254573 0.060252514
0000f0 5e 69 bc 3d cf 3f d3 3d 55 fe cc bd 92 1d ac 3b
       0.09199785 0.10314905 -0.100094475 0.0052525485
000100 d9 f6 cb 3d f9 24 81 3d d9 48 1e be 64 d7 c9 3c
       0.09959192 0.0630588 -0.15457477 0.024638839
000110 8a c7 33 3d 5e 1b a4 bd 46 a3 a3 bd 81 70 b1 bd
       0.043891467 -0.080130324 -0.07990126 -0.086640365
000120 59 55 df 3d 0b b3 a3 bc 77 38 e2 bc 3f 4a 54 bd
       0.10904951 -0.019982835 -0.027614815 -0.05182862
000130 44 64 f6 3d 02 a6 67 3d da 90 b2 3d d1 08 c2 3d
       0.12030843 0.0565548 0.087190345 0.09474338
000140 ee 38 f8 3d c4 44 93 3c 4c 10 06 3e cc 5e 85 3d
       0.121202335 0.017977126 0.13092154 0.06512222
000150 50 ab a7 3c d2 77 79 bd 70 46 a0 bd c0 56 b4 bd
       0.02046743 -0.060905285 -0.07825935 -0.08805609
000160 e4 ed fc bd 3d b9 aa 3d 5f 75 b3 bd 4b cf 22 3e
       -0.123500615 0.08336113 -0.08762621 0.15899388
000170 c3 f8 c1 bd ff 1a 7a 3d 8f 4c a4 3d dc f9 02 be
       -0.09471276 0.0610609 0.08022415 -0.12790626
000180 0a d3 5d 3d 5a b4 0a 3e 26 49 49 3d bf 78 e0 bd
       0.05415634 0.13545361 0.049142025 -0.109605305
000190 be ce 94 bd 5d 7d 0e 3e c8 0e a7 3d 0e 64 25 bb
       -0.072659954 0.1391501 0.08157116 -0.002523664
0001a0 1a 1b 20 bd b4 44 c7 bd aa 5e c6 bd 89 be e4 bd
       -0.039088346 -0.09729901 -0.096860245 -0.11169154
0001b0 dd 1b bd 3d 0e a3 88 bd 65 c8 93 bd 6d 7a 0a be
       0.0923383 -0.06671725 -0.072159566 -0.13523264
0001c0 e3 9a 05 bd 03 3a 77 3d da 85 ad bd ec 04 d2 3d
       -0.032618415 0.06035806 -0.08472796 0.10254845
0001d0 23 7e 1f be 8b 09 e2 3d 18 aa 0c 3e 35 18 71 bd
       -0.15575461 0.110369764 0.1373676 -0.058860976
0001e0 3c 23 91 3d 23 22 9a 3d 46 9c 8a bc 1e be e3 bd
       0.070867985 0.07526042 -0.01692022 -0.11120246
0001f0 e2 a2 0b 3d 3c f7 12 bd 71 28 09 be f4 90 b8 3d
       0.034090884 -0.035880312 -0.13394333 0.090120226
000200 d0 b8 ab bd c0 86 74 3d da a3 06 3d df ab e7 bd
       -0.083848596 0.05969882 0.032871105 -0.11312079
000210 7c b5 32 bb 12 fe 07 3e 0f 01 ba bd b1 44 92 3d
       -0.0027268818 0.13280514 -0.09082233 0.07142008
000220 8d 44 00 be a4 6b dc 3d 59 84 cb bd 53 65 7c 3d
       -0.1252615 0.10762718 -0.09937353 0.061620068
000230 95 26 de bd e8 0a c5 bd ed d7 bc 3d 55 6c 91 3d
       -0.10847203 -0.09621221 0.09220872 0.07100741
000240 c2 54 b5 bc 04 96 67 bd d1 21 13 3e 7a 26 83 3d
       -0.022135142 -0.05653955 0.14368369 0.06403823
000250 7c 37 8c 3d 6d e9 14 be b5 17 25 be dd 62 86 3d
       0.0684652 -0.1454217 -0.16122325 0.065618254
000260 36 79 06 3e 1f 49 b1 3d d6 77 93 3c 57 e5 32 3d
       0.13132176 0.08656525 0.018001478 0.043675747
000270 47 f6 c0 ba 02 fe c5 bd ea dc 8d 3d 7b a9 fe 3d
       -0.0014721834 -0.09667589 0.06926902 0.124346696
000280 bb 29 b6 3c 6d d4 09 bd 7c ff 73 bd 7e d9 8a 3d
       0.022236696 -0.03364985 -0.05956982 0.067797646
000290 ca 01 c1 3d a5 ec f2 3d 09 b3 5a 3d 6b 3f 13 bd
       0.09424169 0.118615426 0.053393397 -0.035949152
0002a0 cc 33 08 be 28 b4 d9 3a 88 ce 89 bd 5d 3d 81 3d
       -0.13301009 0.0016609477 -0.06728846 0.06310532
0002b0 04 83 9f 3d 1c d1 04 3e 92 2b 7d bd 3b 99 86 3c
       0.07788661 0.12970394 -0.06180913 0.016430488
0002c0 fc 65 fe 3d 3d 22 c2 3d 49 dd 8c 3c ce bf e1 bd
       0.12421796 0.09479187 0.01719536 -0.11022912
0002d0 ec d3 c8 bd c0 c0 36 bb 76 99 d9 bd ce 69 ea 3d
       -0.09806046 -0.0027885884 -0.106249735 0.11445962
0002e0 41 38 89 bd b4 97 9a 3d 1d 94 cd bd 2e 76 10 bc
       -0.06700183 0.07548466 -0.10038016 -0.008817239
0002f0 a5 30 94 3d 95 c0 9b bd b4 1c ab 3d a4 cf 90 bd
       0.07235841 -0.076050915 0.08355084 -0.07070854
000300 76 fb 2e bb fe 22 e8 bd f5 b5 c7 3d 23 3c 48 3d
       -0.0026700175 -0.11334799 0.097515024 0.048885476
000310 42 c1 e4 3d 51 33 b9 bd d4 98 e9 bd cc 1b 46 3d
       0.111696735 -0.09042991 -0.11406103 0.048366353
000320 e9 14 13 be a3 7c 80 3d c9 33 d5 3b 68 47 d8 3d
       -0.14363445 0.062737726 0.0065064174 0.10560495
000330 89 d1 95 3d 0b 69 f3 3d e8 a6 c5 3d 73 a0 e4 bd
       0.07315356 0.1188527 0.096509755 -0.11163416
000340 88 47 b4 bd 49 34 8a bd 0b c8 c1 3d f9 c4 a4 3d
       -0.08802706 -0.06748254 0.09461983 0.08045382
000350 7a aa 97 3d 42 e1 0c 3d f2 b8 fc 3d 9b ce 94 bd
       0.07405563 0.03439451 0.12339963 -0.07265969
000360 75 6d 8b bd 1e bd af bd bd 30 82 3d ef a6 78 3d
       -0.06807987 -0.08580993 0.06356952 0.060706075
000370 b9 d6 1b bd 99 a4 be 3c 4e 60 38 3d 4b a2 22 3d
       -0.038046572 0.023271846 0.04501372 0.039705556
000380 70 5a 56 3d b5 1f bc bd 31 6b 63 3c 51 92 f9 3d
       0.05233234 -0.09185735 0.013880537 0.12186111
000390 48 7a 57 3d 15 05 7b bd f1 7d bb bd 67 c7 0e 3e
       0.05260685 -0.061284143 -0.09154881 0.13943253
0003a0 48 01 dd bd 86 5f 08 be 85 f4 47 3d 39 f5 a8 3d
       -0.1079126 -0.1331769 0.048817176 0.082498975
0003b0 3e 60 96 bd 57 bf 07 3e f1 73 fa 3d b9 c9 06 be
       -0.073425755 0.13256584 0.12229145 -0.13162889
0003c0 2a e5 35 bd 4d 62 1b 3e f5 a4 b3 3d 7d 24 2f 3d
       -0.044408 0.15174218 0.087716974 0.042759407
0003d0 17 e3 79 3d e1 45 0a 3e 8c 1c 4b 3d cb 35 0a be
       0.061007585 0.13503219 0.04958777 -0.13497083
0003e0 1e 9c 67 3d ac 35 08 3d 07 77 97 bb 97 03 f0 3d
       0.05654537 0.03325431 -0.0046223435 0.11719435
0003f0 82 60 f6 bc 09 c3 85 3d fa cd cf 3d cf 26 fa bd
       -0.030075315 0.06531341 0.10146709 -0.122144334
