bnn_model_96.pth (torch, 300342 bytes, 2 tensors)

fc1.weight f4 [96, 768]
0.0017321524 -0.010983188 -0.01892527 -0.025896775 -0.0034874654 -0.036180705 -0.0023695584 -0.035335716
-0.021653524 -0.04471898 -0.05412724 0.008667041 0.004892686 0.0073048943 0.014786418 0.010800619
-0.050298218 -0.026116332 -0.040030394 -0.033198774 -0.026766745 -0.026960904 -0.037622668 -0.02673426
-0.03982123 -0.016354313 -0.032682516 -0.05311871 -0.026007654 -0.027021198 -0.055689197 -0.021967763
0.002607514 -0.002267454 -0.03507987 -0.01823545 -0.04922071 -0.050103687 -0.01318991 -0.013536869
-0.037669625 -0.046504624 -0.02703612 0.009286122 -0.03457505 0.023413312 -0.008522528 -0.026678374
0.018573487 0.011488794 -0.013514848 -0.030375177 -0.017859722 -0.020330532 -0.0002285248 -0.05355877
-0.044536933 -0.011373796 -0.056241117 0.0011063656 -0.008284582 -0.005924351 -0.015263643 -0.030371116
0.019762725 0.027501134 0.0060892534 -0.0034885616 0.018273644 -0.0030146367 -0.008078695 0.04218244
-0.005669221 0.00436426 0.0034957067 -0.0033013832 0.0019960843 0.021435542 -0.013004976 -0.03591223
-0.033743016 -0.05573069 -0.013077939 -0.046024214 -0.03920014 -0.029032832 -0.006047962 -0.01776621
0.009880103 -0.033075146 -0.008314224 -0.034163788 0.024755033 0.018242706 0.02042605 0.050235674
0.07754974 0.050774924 0.0732118 0.058300298 0.080664955 0.04923553 0.06568034 0.031019669
0.025960645 0.019256743 -0.01845071 -0.023539329 0.016594365 0.0059191664 -0.043771744 -0.03682152
-0.04148387 0.011865249 -0.057302758 -0.0035226601 -0.020323172 -0.021594997 -0.025044266 -0.012307636
0.0361491 0.043860808 0.046042033 0.038719367 0.019381233 0.01892774 0.036424533 0.04813359
0.011980546 -0.0028402582 0.023468629 0.041192148 0.032494456 0.008848851 0.0014145822 -0.016386077
0.013941979 0.018844089 -0.009460013 -0.03619183 -0.031112546 -0.0038807779 -0.027260495 -0.035197828
-0.03593689 -0.004615307 -0.031503506 -0.031944584 -0.007208757 -0.03724666 0.043529756 -0.027002664
0.038471125 0.01530168 0.0051802453 0.022854725 0.02271434 0.024739638 0.059014503 0.025435926
0.021811984 0.008937586 -0.007791326 -0.06453323 0.023331802 0.015956752 -0.018604148 -0.0129376855
-0.04358418 -0.026678994 -0.04814797 -0.05486004 -0.028315153 0.023041692 0.016322182 -0.018671751
-0.02992149 -0.04516636 0.016449554 -0.009290686 0.0022366052 -0.0004721589 -0.009073188 0.03235835
0.038143817 -0.050477207 0.021272428 -0.028475497 0.025903834 -0.01853826 -0.0311187 -0.06659681
-0.037296064 0.03629185 -0.021014957 -0.029992262 -0.01444032 0.0100022135 -0.022517944 -0.020253751
-0.05122115 -0.0073844274 -0.033401474 0.03119717 -0.03521969 0.008641085 0.011039211 -0.007323632
-0.019359432 0.034800213 0.0024484464 0.06339037 0.05419105 0.0063672746 0.010833887 0.059555203
0.02683291 0.03976521 0.010116614 -0.017611088 0.018482715 -0.024642944 -0.022217652 -0.016356952
0.0069562285 -0.015807915 0.0058639874 -0.023501683 -0.011234291 0.010002725 0.038258556 0.031245792
0.04396596 0.05806805 0.0723768 0.019025687 -0.011182654 -0.016793853 0.025773074 0.027678937
0.01641754 0.030090373 0.0062554865 0.07725768 0.00792759 0.023433818 0.01704799 0.036344454
0.072200455 0.007931045 -0.034665212 -0.032819144 -0.022402273 -0.04060936 -0.046198353 -0.027235609
00000000: 6409 e33a d4f2 33bc 2b09 9bbc 7925 d4bc
00000010: f68d 64bb 3832 14bd 984a 1bbb 2fbc 10bd
00000020: bb62 b1bc 402b 37bd 86b4 5dbd 3400 0e3c
00000030: d352 a03b e55d ef3b bb42 723c 14f5 303c
00000040: 8105 4ebd ebf1 d5bc e9f6 23bd 70fb 07bd
00000050: ef45 dbbc 1ddd dcbc 3a1a 1abd cf01 dbbc
00000060: 961b 23bd 7bf9 85bc 1ade 05bd 0193 59bd
00000070: 010e d5bc 8f5b ddbc 5b1a 64bd bdf5 b3bc
00000080: d3e2 2a3b 9199 14bb e9af 0fbd 8362 95bc
00000090: a89b 49bd 8639 4dbd 7e1a 58bc bec9 5dbc
000000a0: 774b 1abd a27b 3ebd da7a ddbc d224 183c
000000b0: 919e 0dbd 46cd bf3c 13a2 0bbc 9b8c dabc
000000c0: 6d27 983c 7f3b 3c3c 626d 5dbc 5dd5 f8bc
000000d0: 8d4e 92bc 378c a6bc 29a0 6fb9 7160 5bbd
000000e0: 5c6c 36bd 2859 3abc 165d 66bd 7803 913a
000000f0: 0ebc 07bc 0f21 c2bb 5c14 7abc d9cc f8bc
00000100: 70e5 a13c 0f4a e13c 5c88 c73b 5aa0 64bb
00000110: 9cb2 953c 3691 45bb 815c 04bc 7fc7 2c3d
00000120: dfc4 b9bb 1102 8f3b 3a18 653b 055c 58bb
00000130: bdd0 023b 9799 af3c d312 55bc b418 13bd
00000140: 1e36 0abd dd45 64bd da44 56bc e383 3cbd
00000150: 5390 20bd 43d6 edbc fb2d c6bb 718a 91bc
00000160: 28e0 213c ce79 07bd 6238 08bc 54ef 0bbd
00000170: 11cb ca3c ba71 953c 8854 a73c ecc3 4d3d
00000180: 66d2 9e3d 5ef9 4f3d 11f0 953d 4bcc 6e3d
00000190: ab33 a53d 32ab 493d 6a83 863d f61c fe3c
000001a0: 6bab d43c 51c0 9d3c f225 97bc 8dd5 c0bc
000001b0: e8f0 873c 91f5 c13b 004a 33bd 2ad2 16bd
000001c0: feea 29bd 7666 423c 4cb6 6abd 6edc 66bb
000001d0: c87c a6bc fee7 b0bc a229 cdbc f8a5 49bc
000001e0: 1411 143d 64a7 333d 9296 3c3d 3398 1e3d
000001f0: 64c5 9e3c 590e 9b3c e431 153d ba27 453d
00000200: 0d4a 443c a023 3abb 4841 c03c 19b9 283d
00000210: e818 053d c5fa 103c 8169 b93a 183c 86bc
00000220: e66c 643c eb5e 9a3c 2cfe 1abc e23d 14bd
00000230: bddf febc a654 7ebb 6751 dfbc 992b 10bd
00000240: 8f32 13bd 003c 97bb d209 01bd 53d8 02bd
00000250: 7037 ecbb f48f 18bd 424c 323d b134 ddbc
00000260: e693 1d3d e6b3 7a3c 0cbf a93b d539 bb3c
00000270: 6c13 ba3c c8aa ca3c 31b9 713d 015f d03c
00000280: 0caf b23c f46e 123c 614e ffbb 002a 84bd
00000290: 5622 bf3c bcb7 823c ba67 98bc 96f8 53bc
000002a0: 5385 32bd e88d dabc ce36 45bd ecb4 60bd
000002b0: 2ef5 e7bc eec1 bc3c 19b6 853c 80f5 98bc
000002c0: ea1d f5bc 5c00 39bd 37c1 863c f637 18bc
000002d0: 0294 123b 188c f7b9 b5a7 14bc 308a 043d
000002e0: b13c 1c3d 30c1 4ebd 8443 ae3c 7245 e9bc
000002f0: 4734 d43c 8ddd 97bc a5ec febc e963 88bd
00000300: c2c3 18bd c3a6 143d 8f27 acbc 55b2 f5bc
00000310: 1897 6cbc 53e0 233c 8d77 b8bc 32eb a5bc
00000320: 45cd 51bd 11f9 f1bb fccf 08bd 3591 ff3c
00000330: 8642 10bd 5693 0d3c cfdd 343c 14fb efbb
00000340: ac97 9ebc ab8a 0e3d 1d76 203b cfd2 813d
00000350: 6ff7 5d3d 92a4 d03b 9e80 313c 28f0 733d
00000360: b1d0 db3c d8e0 223d 28c0 253c 2145 90bc
00000370: 1069 973c 00e0 c9bc cb01 b6bc 04ff 85bc
00000380: 13f1 e33b 9a7f 81bc b126 c03b 9a86 c0bc
00000390: 0810 38bc 78e2 233c 01b5 1c3d 2df7 ff3c
000003a0: a715 343d c3d8 6d3d 4a3a 943d c2db 9b3c
000003b0: 7337 37bc 4393 89bc 0e22 d33c f0be e23c
000003c0: 147e 863c 1680 f63c d3fa cc3b 4639 9e3d
000003d0: b9e2 013c 47f8 bf3c 3aa8 8b3c ecdd 143d
000003e0: d5dd 933d 37f1 013c 1cfd 0dbd 5e6d 06bd
000003f0: f984 b7bc 0056 26bd 7c3a 3dbd 361d dfbc

fc2.weight f4 [10, 96]
0.01903542 -0.13176943 -0.16802767 -0.24899781 0.16523546 0.02938037 0.23412503 -0.21275222
-0.2148727 0.15192987 0.13166678 -0.20260003 0.13497071 -0.045180008 0.31523383 0.19212684
0.20122336 -0.2919762 0.1319125 -0.1312678 -0.019741634 0.063023634 -0.08178073 0.09053097
0.17185713 0.2498109 -0.11169118 -0.09148929 -0.17443787 -0.12099349 -0.2529685 -0.29677632
0.21624672 0.113096476 -0.075185545 -0.17485069 -0.051319376 -0.3323019 -0.17850927 0.12631336
-0.09263002 0.28571108 -0.2600363 -0.12040613 -0.069971964 0.043711208 -0.18289398 -0.23122124
0.18689328 0.27890956 -0.13446763 -0.10873768 -0.19849603 -0.23294757 -0.2547717 0.010829729
0.24005994 -0.063373245 -0.20699106 -0.09673501 -0.18834648 0.15273286 0.17757976 0.005400204
-0.30698115 -0.08944228 0.114932194 -0.12422237 -0.16148365 0.21060172 -0.25693518 -0.27328852
0.24968271 -0.22959043 -0.130371 -0.17044304 0.3027651 -0.2465909 -0.19155803 -0.0119880885
0.20121995 0.1336678 -0.05194535 -0.0995503 -0.09537232 0.09630073 -0.17726372 -0.18026063
-0.08903074 -0.20981382 0.21715415 0.15522873 -0.18946724 -0.2103561 -0.053240407 -0.041871242
-0.2502739 -0.25295 0.1344698 0.15103398 -0.19987394 -0.19776425 -0.07817037 0.08880612
0.19398138 0.017926125 -0.26726964 0.042604044 -0.2005999 0.1456608 0.21326427 -0.081051186
0.26707453 0.14692594 -0.23647347 0.2100292 0.058193695 -0.18857133 0.18954608 -0.13665453
-0.20018603 -0.055370335 0.22177999 0.2468136 0.09364406 -0.38361728 0.009823256 0.1858536
-0.12444947 0.19802204 -0.22017166 0.207159 -0.12959029 0.114804916 -0.17376588 -0.251342
-0.01962939 0.17994556 -0.17519319 0.22222748 0.08480807 -0.25445902 -0.1792769 0.18187913
0.08322506 0.3059114 0.13691765 0.13802548 -0.21836631 0.20875515 -0.017421264 0.22460459
0.19023305 0.25982127 0.22978315 0.19380258 -0.23753467 -0.22137928 -0.17555843 -0.26071474
0.16144182 -0.31395683 -0.20039584 -0.03771473 0.105475254 0.13636957 -0.34383902 -0.087919965
0.16379042 -0.2515555 0.18430766 0.27741113 0.018733842 0.061212428 -0.17999926 0.13200586
-0.19684827 -0.2866979 0.21790205 0.23866464 0.18727745 0.060595177 0.15232831 -0.19712903
0.18884741 -0.08255322 -0.20913664 -0.06397456 -0.12125962 -0.29602116 0.10399937 -0.21882209
0.08192511 -0.13382074 -0.25999895 -0.12683716 -0.08768662 0.28652763 -0.2616036 0.13479881
0.07322903 -0.15433569 -0.084185645 -0.011580007 -0.24149652 -0.18283261 0.054366525 0.23109211
-0.21243507 -0.15459844 0.3376625 0.079936795 0.039503384 -0.28219262 0.047990527 -0.25926337
-0.03560996 0.24139464 0.036643505 0.20871706 -0.1025709 0.27808627 0.29270542 0.269324
-0.41663417 -0.23641074 0.15620719 -0.26118505 -0.27773944 0.34827238 0.34192482 -0.21253173
0.2820966 0.16315915 -0.020937793 0.10208529 0.19033529 -0.06272141 -0.031152708 0.034322828
-0.20849846 -0.40362614 0.17060113 0.16998498 -0.098670974 -0.36889756 -0.19976507 -0.22240551
-0.28785726 -0.3513681 -0.054415196 0.18284324 0.11832336 -0.014814605 -0.2810532 -0.23010644
00000000: 2bf0 9b3c 91ee 06be 720f 2cbe 48f9 7ebe
00000010: 7c33 293e 1aaf f03c 79be 6f3e b8db 59be
00000020: 9707 5cbe 8193 1b3e a8d3 063e 6276 4fbe
00000030: c335 0a3e ac0e 39bd 5466 a13e e6bc 443e
00000040: 7f0d 4e3e e87d 95be 1214 073e 116b 06be
00000050: 35b9 a1bc 8912 813d a87c a7bd 4d68 b93d
00000060: 51fb 2f3e 6ece 7f3e 58be e4bd bd5e bbbd
00000070: d79f 32be 6fcb f7bd 1685 81be 11f3 97be
00000080: c86f 5d3e 209f e73d e1fa 99bd 0f0c 33be
00000090: 4434 52bd 7a23 aabe 22cb 36be 4a58 013e
000000a0: cfb4 bdbd b948 923e 7a23 85be 7d97 f6bd
000000b0: 764d 8fbd 860a 333d 8f48 3bbe 43c5 6cbe
000000c0: f460 3f3e 3ccd 8e3e e2b1 09be dcb1 debd
000000d0: 8b42 4bbe cf89 6ebe 7071 82be 2d6f 313c
000000e0: 46d2 753e d5c9 81bd 77f5 53be 011d c6bd
000000f0: e6dd 40be 0166 1c3e 78d7 353e 32f4 b03b
00000100: a22c 9dbe 842d b7bd 9261 eb3d 4c68 febd
00000110: f85b 25be faa7 573e 028d 83be 79ec 8bbe
00000120: d3ac 7f3e c119 6bbe fa7f 05be 9f88 2ebe
00000130: 0704 9b3e 5382 7cbe ca27 44be b069 44bc
00000140: 9a0c 4e3e 36e0 083e a6c4 54bd 07e1 cbbd
00000150: 9052 c3bd 5139 c53d 9f84 35be 3e96 38be
00000160: c055 b6bd 6fd9 56be a85d 5e3e 48f4 1e3e
00000170: b303 42be 9767 57be 9d12 5abd 2e81 2bbd
00000180: e723 80be aa82 81be 74b2 093e a7a8 1a3e
00000190: c1ab 4cbe b682 4abe c917 a0bd fcdf b53d
000001a0: 0ea3 463e cfd9 923c 91d7 88be 9481 2e3d
000001b0: 0f6a 4dbe 1b28 153e f361 5a3e 2afe a5bd
000001c0: febd 883e c173 163e 1a26 72be e511 573e
000001d0: 835c 6e3d d818 41be 5e18 423e 2aef 0bbe
000001e0: 91fd 4cbe 01cc 62bd 4b1a 633e b4bc 7c3e
000001f0: 75c8 bf3d 7c69 c4be b9f1 203c 6850 3e3e
00000200: 5ddf febd 4ac6 4a3e ae74 61be 7d21 543e
00000210: 51b3 04be d71e eb3d afef 31be e6af 80be
00000220: d1cd a0bc a643 383e d865 33be 9a8f 633e
00000230: daaf ad3d 7448 82be 5d94 37be 863e 3a3e
00000240: e671 aa3d 6ba0 9c3e 2434 0c3e 8d56 0d3e
00000250: 6b9b 5fbe e9c3 553e 0ab7 8ebc bffe 653e
00000260: 74cc 423e 4b07 853e 464c 6b3e 2f74 463e
00000270: 4a3c 73be 40b1 62be 97c5 33be 677c 85be
00000280: 0151 253e f3be a0be 9134 4dbe c37a 1abd
00000290: 6903 d83d 77a4 0b3e ab0b b0be 620f b4bd
000002a0: adb8 273e e2cb 80be 26bb 3c3e d508 8e3e
000002b0: b777 993c e2b9 7a3d ba51 38be 8b2c 073e
000002c0: 9892 49be 11ca 92be b721 5f3e 8164 743e
000002d0: a9c5 3f3e a632 783d f4fb 1b3e 31dc 49be
000002e0: 3761 413e aa11 a9bd ea27 56be 1805 83bd
000002f0: f756 f8bd 1690 97be 9ffd d43d e612 60be
00000300: 5ac8 a73d 4e08 09be 951e 85be 9ae1 01be
00000310: 0b95 b3bd c0b3 923e e8f0 85be b308 0a3e
00000320: 1af9 953d 2d0a 1ebe 8669 acbd 12ba 3dbc
00000330: dd4a 77be 7938 3bbe 6faf 5e3d 69a3 6c3e
00000340: 9488 59be 0e4f 1ebe 19e2 ac3e e7b5 a33d
00000350: 4dce 213d 8d7b 90be b791 443d 2bbe 84be
00000360: c0db 11bd 2830 773e 8017 163d edb9 553e
00000370: b110 d2bd 5361 8e3e 7cdd 953e d6e4 893e
00000380: 1351 d5be a815 72be c7f4 1f3e 0cba 85be
00000390: dd33 8ebe c250 b23e c510 af3e eba1 59be
000003a0: f76e 903e 3113 273e bc85 abbc 1812 d13d
000003b0: 41e7 423e 1574 80bd f733 ffbc 1896 0c3d
000003c0: 9f80 55be 16a8 cebe 10b2 2e3e 8b10 2e3e
000003d0: 0214 cabd 24e0 bcbe 378f 4cbe 45be 63be
000003e0: 0762 93be 85e6 b3be 78e2 5ebd 423b 3b3e
000003f0: 8553 f23d f5b8 72bc 34e6 8fbe 06a1 6bbe
