bnn_model.pth (torch, 299887 bytes, 2 tensors)

fc1.weight f4 [96, 768]
00000000: 0b1f 783c a5ed fcbc d199 e93b e566 cd3b
00000010: ef39 98bc 9d80 8c3c 23f8 273c 1f15 55bc
00000020: 9f9d 9dbc 14bb 05bd f9bc 8d3c 95d8 fbbc
00000030: e809 a1bc a67e 0abd 6809 98bc 98f9 7dbc
00000040: a3f1 88bc cf54 313c ed92 b3bb d7e1 38bd
00000050: 8123 a9bb d98a 8d3c c657 1dbd 8ffc 39bd
00000060: 01b6 a03c bb6e 703c e312 c23c 8fb8 853c
00000070: 69f2 4fbc c312 0cbd a1ca 113c f1b0 783c
00000080: 9c7a 82bb 470b 8e3b 82e6 053c d343 0cbd
00000090: 616e 17bc d27b bf3a 526b 043a 2a54 973b
000000a0: 9db5 43bc 3f35 04bd d936 183c 3d48 11ba
000000b0: d5df d23c e242 03bd c3d0 bdbb 2a38 af3c
000000c0: 9be1 a8bc e0a1 cc3c b1e9 d33c 4c6f 153c
000000d0: 734c babb 3fb2 90bc 41a2 37bd 4b3f 9cbb
000000e0: 3f1e 8abc 5de4 d6bb 4090 3abd 92b9 d9bc
000000f0: f3d5 75bc e7ee 0bbd 4e38 0bbd b88b aebb
00000100: 555f 893c a93f 0cbd d439 d3bc e3a2 ccbc
00000110: ada9 d33c 1af6 e53c 0f61 f33c e198 9f3c
00000120: 93ea f0bc 622c 08bd 48d1 2d3c 4765 d53c
00000130: c059 bf3c b3a6 f43b cc8d 27bd 4902 2d3c
00000140: 07bb b83c 4538 023b 37b6 67ba 5a57 47bb
00000150: 11cb b8bb a95f c8bc 49d1 9ebc f2ed dcbc
00000160: 016f 51bb e015 b03c 1c6b 8b3b 2019 813c
00000170: 1034 19bd cf95 e93c 8c5a 493b e692 e6bc
00000180: 30ad 463c d88b 123c 2023 8a3c 8c87 c6bc
00000190: a784 88bc 8ef5 c93b 20a7 17bc ece6 823c
000001a0: acac d7bc 4bb0 083d 5a0f 31bb 2d3c 803c
000001b0: 7a38 a63c f793 86bc 198f d93c 1907 973c
000001c0: c371 6bbc 6db3 96b9 871b e2bc e611 903c
000001d0: c0d6 913c a51f ddbc 5c10 1dbb d9a3 a1bb
000001e0: 41ae 743c e310 693b 0fa7 bcbc fd51 86bc
000001f0: a4ad cd3c b9e3 983c f092 533b 2633 05bb
00000200: 8a60 5a3c 269c 6c3c 52c3 6dbc 11fe 34bc
00000210: c894 05bc 11bd 823b 4bf1 f1bc 36a2 8dbc
00000220: 1672 00bd bbda f9bc f82b 1ebd 3127 dcbc
00000230: 091c a33c 0542 9dbc 7ea0 1cbd 83dd 0fbc
00000240: de88 a5bb 8817 5abd 54a6 0bbd 9a38 c0bb
00000250: 7057 f2bb 4cc6 003d 340e 893d 4b4e 7abb
00000260: 6212 173d ed35 22bc 7480 ccbc f634 59bd
00000270: 6b41 6dbd c3d4 15bd c932 f9bc 21c7 c4bb
00000280: 640e bdbc 0432 90bc 6d39 d0bb c3ae 39bd
00000290: 2019 f2bc e54b 3fbd 6509 3dbc bfee 72bb
000002a0: b0ee 28bc f416 743c 83af 193c 2c7d d139
000002b0: 2b4f 08bc b9e4 3ebd 767a abbb 4c9a 0b3d
000002c0: 8f04 f13c d038 dc3c 8a0d 033d 2ea5 1b3d
000002d0: cc4f 9f3c 4743 bc3b 04bf 9f3c ca7b 413c
000002e0: 2457 0fba 3eed e63a 8544 fa3b d2ab 8ebc
000002f0: 9e1d 03bd b70f f1bc 5071 24bd f044 81bd
00000300: dc1b a3bc f384 c0bc ddfb 33bc 61d3 06bc
00000310: 7165 aebc 5791 2b3c 46e3 fbbc d1e4 23bd
00000320: e95f a4ba f78c 41bd 06bd 6abc abd0 203c
00000330: 9fc3 583d ca15 953b 90ca 2d3d 8e23 963c
00000340: c838 45bc f142 d13a 9d54 f4bb fa26 36bb
00000350: 8082 a0bc f8f4 2abd b6ca 00bc b992 8ebc
00000360: 8bd1 b2bc a54d a03b fe90 4fbc 4a41 1c3c
00000370: bdca 4fbd 182a 00bb 4b17 f4bc 69b2 10bd
00000380: f1f2 febc 4057 b33c a3c6 a0bc 8355 b4bc
00000390: cc9c 2abd 2704 c2bc 89f1 c33c c8fa af3b
000003a0: ba39 ad3c f7a8 00bc e192 b3bc c8c2 573d
000003b0: 7a9e 023c 424d 8fbc e65f f53a 23f6 f3bc
000003c0: d49a cdbc b5d5 38bb c0ec 9d3c 4021 b93c
000003d0: 5145 763c e461 d33c 555a b0bc ced1 3c3c
000003e0: 5176 e9bc 630f 6bbc 285e 86bc 03ff edbc
000003f0: b6de 89bc 9941 20bc ce5d f33c 3c41 393c
0.01514412 -0.030875036 0.007128932 0.0062683695 -0.018582312 0.017151171 0.0102520315 -0.013005524
-0.019240199 -0.032649115 0.017302023 -0.030742923 -0.019658044 -0.033812188 -0.018559173 -0.015501402
-0.016716784 0.010823443 -0.0054801614 -0.045137253 -0.005161703 0.017278122 -0.038413785 -0.045406874
0.019618036 0.014674838 0.023690647 0.016323356 -0.012692072 -0.03419758 0.008898408 0.015178905
-0.0039819013 0.0043348405 0.008172633 -0.03424437 -0.009242625 0.0014609045 0.00050513924 0.0046181874
-0.011945155 -0.032277342 0.00929042 -0.00055420754 0.025741497 -0.032046206 -0.0057927086 0.021389086
-0.02061539 0.024979532 0.025868269 0.0091207735 -0.005685383 -0.01766312 -0.04483247 -0.0047682873
-0.016860126 -0.0065579847 -0.045547724 -0.026577745 -0.015004623 -0.034163382 -0.033989243 -0.0053267144
0.01676909 -0.0342404 -0.02578441 -0.024980014 0.025837744 0.028071452 0.029709367 0.019482078
-0.029408729 -0.03324545 0.010608979 0.02604927 0.023358226 0.007466161 -0.040906712 0.010559627
0.02255012 0.0019869965 -0.0008839103 -0.0030417056 -0.005639442 -0.024459677 -0.019386904 -0.02696893
-0.0031957033 0.021494806 0.004254712 0.01575905 -0.037403166 0.028513817 0.0030724136 -0.028146219
0.012126252 0.008944474 0.016862452 -0.024234556 -0.016664816 0.0061633056 -0.009256154 0.015979253
-0.026327454 0.03337125 -0.0027017207 0.015653694 0.020290602 -0.016427977 0.026557492 0.018436002
-0.014370385 -0.00028743912 -0.027601017 0.01758666 0.017802596 -0.026992628 -0.002396605 -0.0049328622
0.0149341235 0.0035563044 -0.023028878 -0.016396517 0.025107212 0.018663274 0.0032283626 -0.0020324676
0.013328681 0.014441526 -0.0145119 -0.011046902 -0.008153148 0.0039898236 -0.029534003 -0.017289262
-0.0313588 -0.030499807 -0.03861615 -0.026874157 0.01991083 -0.01919652 -0.038238995 -0.00878084
-0.005051716 -0.053245097 -0.03409417 -0.0058661224 -0.0073956773 0.03143911 0.06692162 -0.003819364
0.036882766 -0.009900552 -0.024963595 -0.053029023 -0.057923716 -0.03657986 -0.030419724 -0.0060051833
-0.023078151 -0.017601974 -0.006354502 -0.04533268 -0.029552996 -0.046703238 -0.011537884 -0.0037068573
-0.010310814 0.014898051 0.009380224 0.00039956847 -0.008319656 -0.046604846 -0.0052331043 0.034082696
0.029421119 0.026882559 0.031995334 0.037999325 0.01944723 0.005745325 0.019500263 0.011809299
-0.0005468002 0.0017618311 0.0076375627 -0.017415915 -0.032010667 -0.029426439 -0.040147126 -0.06311977
-0.019910745 -0.023500895 -0.010985342 -0.008229108 -0.021288605 0.010471663 -0.03074802 -0.04001314
-0.001254079 -0.047253575 -0.014327293 0.009815375 0.052920934 0.0045497166 0.042429507 0.0183275
-0.0120374635 0.0015965385 -0.0074563758 -0.0027794228 -0.019593477 -0.041737527 -0.00786083 -0.017403947
-0.021828433 0.0048920684 -0.012668846 0.0095370505 -0.050730456 -0.001955634 -0.029796263 -0.035326395
-0.031121703 0.02189219 -0.019625967 -0.022013431 -0.04165344 -0.02368362 0.023918884 0.0053704716
0.02114569 -0.007852784 -0.021920623 0.052675992 0.007972354 -0.017492894 0.0018720597 -0.029780453
-0.025098242 -0.0028203551 0.01927793 0.022598863 0.015031175 0.025803514 -0.021527449 0.011524631
-0.0284988 -0.01434693 -0.01640232 -0.029052263 -0.01682983 -0.009781265 0.029707815 0.011307057

fc2.weight f4 [10, 96]
00000000: 6371 883d 6a56 dc3d f9c6 283e 335f 2b3e
00000010: acb5 31be 4ae0 013e e58f 423e f057 9d3d
00000020: b465 18be b92a 59bd 0d77 243e e46c e0bd
00000030: 0356 f23d e421 213e bbb5 1abe d60a 28be
00000040: 9d8e 10be aaaa dcbd f4a9 cebd 2d92 06be
00000050: 64d3 babd d900 2bbe 540e 823d 7ae9 ddbd
00000060: 7426 37be 70fa 763b 745f 1fbe a772 febb
00000070: e5f0 1ebe d979 16be fde8 a4bd cb3d 113e
00000080: a91c 383e 96a1 9cbd f0b6 ff3d 2e77 2b3e
00000090: 52c4 09be f883 3d3e f770 7fbd c62f 2e3e
000000a0: 558e 1dbe deb3 413e ad79 2c3e b2c9 cabd
000000b0: ee9b d83d b93c babc d9d3 65be bc82 0ebe
000000c0: ef06 a8bc 5566 053e ef18 ba3b 795e 303e
000000d0: a6d2 803d 6eab e93d a92c 863d b1ec 2cbe
000000e0: 021a a33d 5eea dc3d f844 453c 96f4 2b3d
000000f0: ae2a 0c3e 42c2 2a3e c9e6 0ebe a03b 07bd
00000100: 9528 09be c230 e93d 0cf7 033d 310f 88bc
00000110: 66e3 3c3d f850 05be 486e cabd 75fb 503d
00000120: 839a 02be 3ae8 5b3b 9ed1 4e3d 4c08 01be
00000130: a084 62bd 137c 25bd 69e7 2b3e 1f43 cabd
00000140: 5587 ef3d 0363 fd3d 8c21 ba3d 4464 303e
00000150: f45d 0f3e 176c 103e 9d9d 183e c84c f9bd
00000160: b13b 33be b6c1 19be 026b a2bd 3061 0dbe
00000170: 4ad9 483e a4d2 ba3c d1f2 d53d 4f0c 14be
00000180: 4136 d6bd 05bd 283e 88f9 323e 8ea5 f43d
00000190: 32e8 83bc cbe7 813d 52ed 8fbd b831 2abe
000001a0: bd75 1abd 334d 30be 8cae f4bd 5017 3b3e
000001b0: bd85 2cbe e757 0e3e 10e2 b5bd 70b7 bd3d
000001c0: 60ff fbbd 3c1d 53bd 22be 2d3e 286a b8bd
000001d0: 5dbf 103e e4fa 5a3d 837a 24be 7b94 f43d
000001e0: 8991 39be c6f7 1c3d ec15 2fbe 543b 363e
000001f0: 569e 123d 35ad f03d 2a6f 99bd fff3 873d
00000200: 402a e73d a52f 8e3d 35f9 2abe e2c2 f43d
00000210: 8c2f f93d 6c1a 32be 9da9 c33d e139 963d
00000220: 7327 003e c1e2 633d 4515 a2bd 5980 163e
00000230: d5f8 19be 4909 0fbe 83cd 04be 7f0f 02bd
00000240: 4062 103e 3741 1fbe a5ce 3a3e ca7a 0cbe
00000250: 7be4 25be 0086 fdbd c30e dc3d b779 8a3d
00000260: 32f6 2fbe 097a ed3c b286 1bbe da59 023e
00000270: 53b5 3cbe 07f8 07be 55ab 013e 604b 7e3d
00000280: fe14 58be 8a54 713d 3e70 17be b0ac 893d
00000290: 095a 54be b24c e7bd ee8f e2bc 51b6 7bbd
000002a0: 4c8e 3d3d a146 d93d fda4 8d3c fa0a b93b
000002b0: ac87 3cbe 4d79 f4bd 0f32 1cbd a964 123e
000002c0: a7be 41be 70dc 9e3c 1569 26be f644 7cbd
000002d0: 45a9 09be afbd 01be 5cba e53d cad7 25be
000002e0: 9f8c 1cbe 0f82 f43d f5fe bb3d 9d1d 0dbe
000002f0: 52e1 c1bc 5ca7 3fbe 6317 0abe 211d 1d3e
00000300: f1b0 5a3e 123b eb3d 1c70 29bd 51b6 3cbe
00000310: c0ee 39be b08b 23be c791 c13d 04c3 43be
00000320: ba1d 2bbd 4e5f 42be 2224 98bd bea8 ebbd
00000330: 190f 883d 8f51 ee3d bdd2 243e 999d b43d
00000340: cdc7 1e3e e3a3 0dbe 827b 953d db68 8d3d
00000350: 766f aebc 069a d13d bcae d23d 7ed1 d53d
00000360: 88d5 f5bd 522f 5fbd bef6 f73c af91 0c3e
00000370: df9b 19be 400e 45be 383e ee3b d00a 233e
00000380: 4572 0d3e 05c1 0dbe f6ec 2f3e 4e23 313c
00000390: a03a 5abe f68b 41be bdad 39bd 4bc3 b7bd
000003a0: 24a0 ca3d 2f4f 25be c669 4fbe 10de 4e3e
000003b0: 3765 b03c 93ae 553d b4f5 d73d ffd0 2b3e
000003c0: 31ea 403e 145c 48be 0d34 2bbe 3920 1cbc
000003d0: ee25 6ebd f576 c4bd 3139 253e ab94 063e
000003e0: 9749 163e ab87 513e 96bf f4bd 06f4 80bd
000003f0: c453 fd3d 25ca 3d3e 68d3 3f3c a0d0 f4bd
0.06662252 0.1075867 0.16482152 0.16735534 -0.17354459 0.12683216 0.19000204 0.07682788
-0.14882547 -0.05301926 0.1606104 -0.10958269 0.11832812 0.15735584 -0.15108387 -0.16410384
-0.14116903 -0.10774739 -0.1009101 -0.13141699 -0.09122351 -0.16699542 0.06350389 -0.10835548
-0.17885762 0.0037685893 -0.15563756 -0.0077651325 -0.15521581 -0.14694919 -0.080522515 0.14183728
0.17979683 -0.076480076 0.124860644 0.16744682 -0.13453797 0.18507373 -0.06236359 0.17010412
-0.15386327 0.1891627 0.1684329 -0.099017516 0.10576616 -0.022734033 -0.22444095 -0.13917059
-0.020511119 0.13027318 0.005679242 0.17223538 0.06290178 0.11409651 0.06551487 -0.16887166
0.07963945 0.107868895 0.012040369 0.041981302 0.13688156 0.16675666 -0.13955225 -0.033015847
-0.13394387 0.11386253 0.032218024 -0.016608806 0.0461153 -0.13019168 -0.09884316 0.051021058
-0.12754254 0.0033555166 0.050492875 -0.12600821 -0.055302262 -0.04040153 0.16787495 -0.098760836
0.116957344 0.123724006 0.0908843 0.17225748 0.14000684 0.14103733 0.14903875 -0.12172848
-0.17503239 -0.15015301 -0.07930566 -0.13806605 0.19614139 0.02280552 0.10446704 -0.1445782
-0.10459567 0.16478355 0.17478001 0.119456396 -0.01610193 0.06343039 -0.07027687 -0.16620529
-0.03770994 -0.17216949 -0.11947355 0.18270612 -0.16847892 0.1390072 -0.088810086 0.092635036
-0.12304568 -0.051541552 0.16967061 -0.09004623 0.141355 0.053461924 -0.1606236 0.11942383
-0.18121924 0.038322233 -0.17098206 0.1779607 0.035795532 0.117517866 -0.07491906 0.066383354
0.112873554 0.06942681 -0.16696627 0.119512334 0.12167272 -0.17392892 0.095538355 0.07335258
0.12515049 0.05563617 -0.07914213 0.14697398 -0.15036328 -0.13968386 -0.12969021 -0.03175306
0.1409998 -0.15552221 0.18242891 -0.13718715 -0.1620044 -0.12379074 0.10745003 0.067614965
-0.1718376 0.028988855 -0.15188101 0.12729588 -0.18428545 -0.13278209 0.12663014 0.062083602
-0.21101758 0.058918513 -0.14788911 0.06722391 -0.2073747 -0.11293925 -0.027656522 -0.061453167
0.046278283 0.106091745 0.017290587 0.0056470605 -0.1841113 -0.11937199 -0.038133677 0.14296211
-0.18920384 0.019392222 -0.16251023 -0.061589204 -0.13443477 -0.12670015 0.11217186 -0.16195598
-0.15288018 0.11938869 0.091794886 -0.13780828 -0.023667011 -0.18716186 -0.13485484 0.15343143
0.2135656 0.11485876 -0.04136668 -0.18428923 -0.18157482 -0.15971255 0.09451633 -0.19117361
-0.041776396 -0.18981668 -0.07428767 -0.115067944 0.06643505 0.1163665 0.16096015 0.08819122
0.15505905 -0.13832049 0.07298948 0.06904765 -0.021293383 0.10234456 0.10287234 0.10440348
-0.120036185 -0.054488488 0.030269023 0.13727449 -0.15000866 -0.19243717 0.0072706006 0.15922093
0.13813122 -0.13843162 0.17180237 0.01081164 -0.21311426 -0.18901047 -0.045331705 -0.08972796
0.09893826 -0.16143487 -0.20255193 0.20201898 0.021532638 0.05216844 0.10544911 0.16778944
0.18839337 -0.19566375 -0.16719075 -0.009529167 -0.05814164 -0.09593002 0.16135098 0.1314265
0.1467651 0.2046191 -0.119506046 -0.06296544 0.12369493 0.18534143 0.011708118 -0.119538546
