bnn_model_128.pth (torch, 399932 bytes, 2 tensors)

fc1.weight f4 [128, 768]
000000 9a 8f 45 3c 9e e9 dd 3b d4 97 34 bd 34 2b bd bb
       0.012058163 0.006772234 -0.044090107 -0.0057729725
000010 9a 58 3b bd f2 40 71 3c 3a 98 a1 bc 22 2f ba bc
       -0.045738794 0.014724957 -0.019725908 -0.022727553
000020 ce 1c 71 3c ea ff 55 3c 86 16 9f ba 7c 6e f1 bc
       0.01471634 0.013061503 -0.001213745 -0.029471628
000030 f2 38 eb 3b b4 b2 11 3c 1a de 36 bd 1e 19 8c 3c
       0.0071784193 0.008892704 -0.044645406 0.01710182
000040 fa 3d 5a bd 14 9a 17 3c 08 8f fd bb 9c 3e 52 bd
       -0.05328176 0.009253044 -0.007737998 -0.05132924
000050 95 f4 91 3b e8 99 e4 bc 1c f4 c2 bc 8e 1a 25 3c
       0.0044542053 -0.02790542 -0.023798041 0.010077132
000060 fe 86 50 bd f2 24 10 3c d0 64 dc bc 2a e6 e4 bb
       -0.05090999 0.008797871 -0.02690354 -0.0069854455
000070 0c 27 5a 3c c0 19 98 3a 76 82 0c bd 56 1e 7b 3c
       0.013314974 0.0011604354 -0.034304105 0.015327057
000080 a6 66 2e 3c f8 45 1d 3b a1 cb 5e 3c 4c 39 c6 bc
       0.0106445905 0.0023998003 0.013598354 -0.024197243
000090 9f 2d 61 3c 0f 24 95 3a 14 03 1b bc 05 12 a6 3c
       0.013743787 0.0011378544 -0.009461183 0.020272264
0000a0 85 bb a5 3c 64 2b 44 bd b7 83 c9 bc 2a fd 81 3c
       0.020231018 -0.047892943 -0.02459894 0.015867788
0000b0 39 c4 2f bd 4c 45 de bc 86 8c 1d 3c e7 05 02 bd
       -0.042911742 -0.027132653 0.009616023 -0.03174391
0000c0 ee 68 98 bb 13 fd 11 3c d8 a2 6a bc 88 4d 89 bc
       -0.0046511805 0.008910435 -0.014321052 -0.016760603
0000d0 44 e4 07 bb 24 24 89 bc f5 54 81 bb 0e 64 5b 3c
       -0.0020735422 -0.016740866 -0.0039468952 0.013390554
0000e0 6c e2 3b b8 7a 1b 73 3c 5e c3 55 bd 87 da e9 bc
       -4.4795146e-05 0.014838094 -0.05218827 -0.028546585
0000f0 d8 7a 4f bd a6 f0 a6 bc 1b 5a 8e bb 0f a7 bf bc
       -0.050654262 -0.020378422 -0.0043442375 -0.02339509
000100 b6 aa 43 3c b5 e4 25 3b dc 75 b7 bb fe d8 b6 3c
       0.011942556 0.0025313322 -0.0055987667 0.022320267
000110 56 56 f5 3c a8 05 88 bc 90 bc 03 bd 62 a1 02 bd
       0.029948395 -0.01660426 -0.03216225 -0.031892188
000120 7b 08 c5 bb 5f a8 7a 3c 81 b5 bb 3c fa 37 a5 bc
       -0.006012974 0.015298932 0.022913696 -0.020168293
000130 8c 92 2a 3b ea c3 8c 3b b7 b0 ea bb 60 89 c3 bc
       0.002602729 0.0042958157 -0.0071621793 -0.023869216
000140 2e bc 99 bc b4 15 24 bd 92 fa 58 bd 80 6f a5 bc
       -0.018766489 -0.04005976 -0.052973337 -0.020194769
000150 ac 44 e5 bb 12 7a e0 3b 66 0f 7b bb b9 48 32 bd
       -0.0069967117 0.0068504894 -0.0038308739 -0.043526385
000160 ab fd bd bc aa 18 6b bc a2 a4 a1 3c 3e e5 4b 3c
       -0.023192247 -0.014349142 0.019731823 0.012444792
000170 4b 9a af 3c b8 2f 0e 3d bb 6a f8 3c 52 a5 cf bb
       0.021435877 0.034713477 0.03032433 -0.0063368464
000180 55 95 97 3c 0b 6b 1e 3d ad 5e 95 3d 4c 50 36 3d
       0.018503824 0.038676303 0.072934486 0.04451017
000190 bc 8e 9c 3c f1 e5 81 3d ac 16 84 3d c4 54 fd ba
       0.01911103 0.06342686 0.06449637 -0.001932763
0001a0 30 8d 2d 3d 4f aa 92 3c 18 39 74 3a 1f 66 b2 3b
       0.042370975 0.017903475 0.0009316369 0.0054443027
0001b0 98 f6 2d bd cb a9 8d bc 73 50 31 bd 40 11 46 3c
       -0.0424715 -0.017292878 -0.043289613 0.012089074
0001c0 84 09 5f bc f8 57 1d bd d4 e7 22 bb f3 b0 ae bc
       -0.013613109 -0.03841397 -0.0024857419 -0.02132461
0001d0 72 41 cc bc 09 01 cd bc 34 f4 bf 3c 49 58 07 3d
       -0.02493355 -0.025024908 0.023431875 0.03304318
0001e0 67 37 f9 3c f6 b6 27 3d 13 51 19 bc af c4 08 3d
       0.030421926 0.04094597 -0.0093577085 0.033390697
0001f0 17 c0 9d 3b 92 d9 b2 3b 5f 4f 91 3d 5f 74 df 3c
       0.0048141587 0.0054580653 0.07095217 0.02727717
000200 f5 d4 02 3d bf 0b 01 3d 9e 52 d8 3c 4a 51 fd 3c
       0.031941373 0.031505343 0.026406582 0.03092255
000210 c1 35 61 3c 54 90 3e bc b5 fc 21 bd 46 06 53 3c
       0.013745726 -0.01163109 -0.03954764 0.012879914
000220 c1 c1 2a 3c e6 c8 c5 bc 20 a5 1b bd 4f 9f 98 3c
       0.010422171 -0.024143647 -0.037999272 0.018630652
000230 0e 99 da 3a 4a ca 51 bd 5d 2f af bb b4 1c 70 3a
       0.0016677694 -0.05121831 -0.0053462223 0.00091595505
000240 65 3e fb 3c d9 a9 3e 3c 01 b3 3d bc 5b 1a 1a bd
       0.0306694 0.0116371745 -0.011578322 -0.03762279
000250 13 a7 14 3c 35 81 64 3c b4 76 b8 ba e1 dc 05 bd
       0.009073037 0.013946821 -0.0014073462 -0.03268135
000260 c5 98 d9 3c 11 a8 47 3c 5f 45 3b 3b 34 90 c3 ba
       0.026562104 0.012186066 0.0028575284 -0.0014920295
000270 25 da fb 3c af 76 09 3c cf 29 df 3c f0 65 81 bc
       0.030743668 0.008390113 0.027241616 -0.015795678
000280 ce 46 1b bc 0a 30 cf bb 26 dd a3 3b bb 70 e1 bc
       -0.00947733 -0.0063228654 0.005000728 -0.027519574
000290 0e d6 bb bc 7b f2 23 3b 5e ce af 3b a5 6f b8 bc
       -0.022929218 0.0025016356 0.005365177 -0.022514174
0002a0 c4 b1 49 bd 05 5a a3 3b 22 41 7a 3c fd 7b 34 bc
       -0.049241796 0.0049850964 0.015274318 -0.011015889
0002b0 7a 8c e0 bc 47 fd a9 bc 1e 4e 1f bc 3c 5b e1 bc
       -0.027410734 -0.020750655 -0.009723214 -0.027509324
0002c0 1a db 14 bd 61 c0 04 bd d1 15 1e bd a8 c2 80 bc
       -0.036341764 -0.03241003 -0.038595024 -0.01571782
0002d0 45 b8 cb bc e2 9d 4d 3c 9e 1d fb 3b bd 44 24 3d
       -0.02486814 0.012549849 0.0076634428 0.040104616
0002e0 a2 73 7a bc c9 d9 4c bd 61 a3 dc 3b 42 c3 9b bc
       -0.015286358 -0.050012384 0.0067333435 -0.019014005
0002f0 9f e5 0c bd 5c 66 53 bd c7 f8 d0 3b fb 40 0b bd
       -0.03439867 -0.05161129 0.006377313 -0.033997517
000300 43 df 00 bc 6f bd bd bb 33 07 ee bc fe 8d 10 bb
       -0.00786573 -0.0057904045 -0.029056167 -0.002205729
000310 0c 35 d1 bc fe b1 1d bd 12 14 bd bc 11 fd 23 3b
       -0.02553799 -0.038499825 -0.02308086 0.0025022666
000320 96 ff a0 3c 9b 5e 2e bd 78 21 2d bd 03 ad 9a bc
       0.019653123 -0.04257069 -0.042268246 -0.018881327
000330 96 79 84 bc 35 39 07 bd a8 7b 1f 3c 00 2c 02 bd
       -0.016171258 -0.03301354 0.009734072 -0.031780243
000340 2d 38 57 3d 5c a0 b0 3c 59 08 09 3d fe 0a 75 3d
       0.052543808 0.02156084 0.033455227 0.059824936
000350 5d 6b b4 bc 61 7c 22 bd 18 6f cd bc 70 df 0e 3d
       -0.022023851 -0.0396694 -0.025077388 0.034881055
000360 73 b6 3b bc 94 3e 2d bd 00 78 16 bc 35 5f db bc
       -0.0114570735 -0.042296007 -0.009183884 -0.026778797
000370 72 fa 2a 3d 98 b0 d3 3c cd f6 d4 3b 40 02 42 bd
       0.04174275 0.025841042 0.0064991475 -0.047365427
000380 4b 92 3f bd 18 f0 0f bd 32 d5 3c bd a9 b1 4a bd
       -0.046770375 -0.03514108 -0.046101756 -0.049485836
000390 d7 0c 0c bd 90 ee 08 3a ab 9d 38 bc 85 bd d1 3b
       -0.034191933 0.0005223537 -0.01126806 0.0064007663
0003a0 dd 25 55 3d d9 8a ea 3c bc 9a 7b 3d 51 69 d3 bb
       0.052038062 0.02863066 0.061426863 -0.0064517637
0003b0 69 11 be bb cb 8b 2a 3c 43 5b b5 3c f3 89 0a 3c
       -0.0058004153 0.010409306 0.022138244 0.008455741
0003c0 09 99 98 3c be 84 ef 3c 4a f3 30 3d 47 ed 76 3c
       0.01862766 0.029238101 0.04320077 0.01507122
0003d0 8c 26 a9 bc 0a 0c 89 3b 45 46 48 3b 75 79 30 bb
       -0.020648263 0.0041823434 0.0030559462 -0.0026927863
0003e0 ac 16 83 3d 54 99 6a 3d 15 2d b4 3b 81 f4 d3 bc
       0.06400809 0.05727513 0.0054985383 -0.025873424
0003f0 22 4f 07 bd e3 57 1d bc b2 8a 80 3c 47 f7 7a 3a
       -0.03303445 -0.009603473 0.015691135 0.00095735904

fc2.weight f4 [10, 128]
000000 78 20 0e 3c 24 d2 8c 3c 8a dd 99 be dd 9a b0 bd
       0.008674733 0.017190047 -0.30051833 -0.08623288
000010 ea 18 60 3e 55 12 a0 be c5 e5 5f 3e 82 24 cb 3d
       0.21884504 -0.31263986 0.21864994 0.09919073
000020 d3 c3 16 3e a6 e8 7e bd f1 dc 81 be 50 2b ab bd
       0.14723139 -0.06223359 -0.25363877 -0.083578706
000030 90 66 f9 bd 8e 17 8f 3d 4e f5 40 3e fe 0f fb bc
       -0.12177765 0.069869146 0.18843576 -0.030647274
000040 ac 40 29 be 1b 0d fe 3d cb e0 7b 3e 16 52 f8 bc
       -0.16528577 0.124048434 0.2459747 -0.03031258
000050 dd 49 56 3e ec 74 cf bd 7b 3c 91 bd 66 64 f8 bd
       0.20926614 -0.10129723 -0.07091614 -0.121285245
000060 e7 36 0a be 22 c3 a2 be d5 e9 c0 bd 4b 37 4a 3e
       -0.13497506 -0.317895 -0.094196 0.19747655
000070 ca 35 62 3e 1f fe 32 3e 0f 70 2a be 84 48 78 3e
       0.22090831 0.17479752 -0.1664431 0.24246413
000080 b5 50 45 3e 2a 76 0d be 11 45 41 3e 3d 93 39 be
       0.19269069 -0.13814607 0.18874003 -0.18122573
000090 5a 08 ce bd 41 1a f9 3d 61 a4 22 3e 0e 91 53 bd
       -0.10060187 0.12163211 0.15883018 -0.051652007
0000a0 16 23 20 3c bd 43 d6 bd aa 6c 31 bd bc 41 6e 3d
       0.00977399 -0.10462139 -0.04331652 0.058168158
0000b0 94 0a 08 be d6 d4 b9 bd b4 a5 dc bd bd 92 70 3e
       -0.13285285 -0.09073798 -0.10773793 0.23493476
0000c0 18 25 52 3e 83 e5 49 bc 05 7b 2c 3e a8 a3 a7 bd
       0.20521963 -0.012322786 0.16843803 -0.08185512
0000d0 e3 db de 3d 5f 1c 2c 3e fa 0c 0c 3e d6 48 59 bd
       0.10881784 0.16807698 0.13676825 -0.053047977
0000e0 3f f6 15 be 9c 49 31 3e 39 b0 da 3d 73 9e 06 be
       -0.14644717 0.17313236 0.10678143 -0.13146381
0000f0 8c c7 df bd 14 f9 97 3b a1 80 06 3e 4a 06 ff bd
       -0.109267324 0.0046378467 0.13135006 -0.124523714
000100 4f f9 21 be d2 26 cc 3d 2e df 2e 3c 4c c4 86 3d
       -0.1581776 0.09968342 0.010673327 0.065804094
000110 1a b0 af bd bd 13 18 3e e9 1d 5b bd 6b b9 e4 bd
       -0.085785106 0.1485128 -0.05349532 -0.11168178
000120 c1 59 70 3e eb 40 d9 3d 5b 10 12 3e 98 45 a6 3d
       0.23471738 0.10608085 0.14264052 0.08118743
000130 7d 6f e4 bd 38 57 21 be ce 6c a4 bd 09 7a 24 3d
       -0.11154077 -0.15755928 -0.08028565 0.040155444
000140 01 e5 90 be 6e 43 46 3d 81 be 60 3c 04 57 2e 3e
       -0.28299716 0.04840415 0.013717295 0.17025381
000150 e5 a7 e7 3d 83 3c 0c be 92 c0 dd 3d ee 21 17 be
       0.1131132 -0.13694958 0.108277455 -0.14759037
000160 26 17 ae bc 84 9c 7b be b6 00 08 be f9 ad aa 3e
       -0.021251272 -0.24571425 -0.13281521 0.33335856
000170 10 80 40 be cf 97 18 bd da 43 e8 3d 59 d5 1b be
       -0.18798852 -0.03725415 0.11341067 -0.15218104
000180 96 78 0c be 0f 3a a9 bd 2e 56 18 bd 2f 1b 1a 3e
       -0.13717875 -0.08263027 -0.037191562 0.15049432
000190 42 59 7a 3e 10 6b d6 3d aa e4 ad bd 22 8d 54 be
       0.24448112 0.10469639 -0.0849088 -0.20756963
0001a0 21 93 fb 3d b9 8a e3 bd 85 97 aa 3c b2 42 80 3d
       0.12283922 -0.111104436 0.020824203 0.06262721
0001b0 b3 02 7b bd 58 87 4d be 44 77 aa bd ea 69 2a 3e
       -0.06128187 -0.20071161 -0.08323529 0.16641966
0001c0 0e 2b bc 3a 07 12 5c be 61 52 fb bb 44 55 33 3e
       0.0014356093 -0.21491252 -0.0076697324 0.17512995
0001d0 f6 f0 c4 3e 50 b7 11 be ba ff cd bd 24 fc ca bc
       0.3846509 -0.14230084 -0.100585416 -0.024778433
0001e0 9c 1e 2f 3e a3 dd 70 3e 68 67 3b be 84 68 2e 3e
       0.1710152 0.23522048 -0.18301165 0.17032057
0001f0 fd d2 91 bc c4 de ed 3d 5d cd 32 3d 16 36 74 3e
       -0.017800802 0.11614755 0.04365288 0.23848757
000200 11 ad 16 be b9 77 2b be ac 21 29 be 1a fe 06 be
       -0.14714457 -0.1674489 -0.16516751 -0.1318287
000210 c3 2f 6b 3e 3c a1 5d be e5 07 64 3e a2 b6 4c be
       0.22967438 -0.21643537 0.22268637 -0.19991544
000220 7f 7f 4e be 02 75 89 3e 21 6b 2b be 94 e6 b4 bc
       -0.20165823 0.26847082 -0.16740085 -0.022082604
000230 8e 41 08 be c2 e5 1a 3e 6e 72 70 be 0d 0d 52 3e
       -0.13306257 0.15126708 -0.23481151 0.20512791
000240 f1 fe dc 3d a3 4b d4 bd d6 40 33 3e 1e c6 10 bd
       0.10790814 -0.10365989 0.17505202 -0.03534519
000250 cb 9a 03 be 98 54 09 3e 55 a7 0f 3e e9 5e 17 3e
       -0.12852018 0.13411176 0.14028676 0.14782299
000260 e1 89 35 3e d3 6b ef 3c bf bd 41 3e 2f 66 4b be
       0.17728378 0.02922622 0.18920039 -0.19863199
000270 35 f4 17 be 15 90 be 3d 71 20 a0 3c 16 bb 31 3e
       -0.14839251 0.09304825 0.01954672 0.17356524
000280 c2 4c 10 be 99 a2 00 3d f1 bf 0e be c5 bd 85 be
       -0.14091781 0.031405065 -0.13940407 -0.26121345
000290 72 35 5d 3e de 60 ab 3d de 81 5f be 9a 1c 61 3e
       0.21602419 0.08368085 -0.21826884 0.21983567
0002a0 9b b1 60 be 1d 2c 3b be 35 8e 82 3d 1d 5b 36 bd
       -0.21942751 -0.18278547 0.0637478 -0.044520486
0002b0 01 f3 e8 3d fb 1d 0a 3e 4a cf 37 be fe 6a 44 bd
       0.11374474 0.13487999 -0.17950168 -0.0479536
0002c0 bc 62 43 3e 8d ff 17 be 51 79 20 be 92 43 4e 3d
       0.19080633 -0.14843579 -0.15671279 0.05035741
0002d0 bc b5 ab bb f8 7c c7 bd 7c 08 c4 bd 23 20 2c 3e
       -0.0052401703 -0.09740633 -0.09571931 0.16809134
0002e0 5d 6c 20 bd 58 ce 03 be 53 41 2a be ab 59 0d bd
       -0.039165843 -0.12871683 -0.16626482 -0.034509342
0002f0 8b 74 31 3e 40 73 97 bd b1 96 50 be 69 18 58 be
       0.17329614 -0.07395029 -0.20369984 -0.21103062
000300 b9 8e 2e 3e 44 eb 67 be 89 7d 3f 3e 67 08 5b 3e
       0.17046632 -0.2264834 0.18700232 0.21389924
000310 eb d2 d0 bb 1a ff 5e 3d 9a 47 27 3d 38 c3 26 3e
       -0.0063727996 0.054442503 0.04083977 0.16285408
000320 5b bd b3 3b bd 3f 68 be 6f 96 71 3d 0f 52 05 3e
       0.0054852194 -0.22680564 0.058981355 0.13019584
000330 9d 18 5d 3e 07 3e 75 3d 82 2a 29 be 14 3d 1e be
       0.2159142 0.059873607 -0.16520122 -0.15452987
000340 b9 3f 43 3d 1f ec 07 bd 9d 5d f5 3d a0 de 7f 3e
       0.047668193 -0.033184167 0.11980746 0.24987268
000350 d9 26 4f 3e e3 81 5d 3e 07 8c 71 3e d5 bb a8 bd
       0.20229663 0.21631579 0.23588572 -0.08238951
000360 a0 9f 50 3d 5a cd 19 3e 03 f4 50 be d2 9b 1e 3e
       0.05093348 0.15019742 -0.20405583 0.15489128
000370 30 c3 07 3e 0a e6 44 be 63 1b 9c 3d 67 a5 72 bd
       0.13258052 -0.19228378 0.07622411 -0.05923977
000380 83 b6 5f 3e fa 8c 6e be 64 50 49 be a8 91 1a be
       0.21846966 -0.23295966 -0.19659573 -0.15094626
000390 3f 52 95 bd ee f3 e4 3b 76 d0 29 3e 27 81 7c be
       -0.07291078 0.0069870865 0.16583428 -0.24658643
0003a0 fa 7a d5 bd f9 02 cd bc 30 de c3 3d e7 7a 43 be
       -0.104238465 -0.025025832 0.09563863 -0.19089852
0003b0 ca c5 2e 3e 60 72 f8 3a fd f8 0b 3e 8f a3 3d bd
       0.17067638 0.0018954985 0.136692 -0.04629856
0003c0 31 c9 11 be 1c 66 0c be 3a d2 c7 bd 47 b7 2a be
       -0.14236905 -0.13710827 -0.097568944 -0.16671477
0003d0 52 d5 1a be 0b 47 eb bd 53 4a 6a 3d 9a ec 2a be
       -0.15120438 -0.1148816 0.057199787 -0.16691819
0003e0 8a 68 62 bd 9a 27 25 3e 1d 5c 11 3d 1f 0a ff bd
       -0.055275477 0.16128388 0.035488237 -0.12453102
0003f0 b7 24 c2 bd ce 71 41 be 94 0d 32 3e 6d 91 b4 3d
       -0.09479659 -0.1889107 0.17387992 0.088168
