bnn_model_256.pth (torch, 798268 bytes, 2 tensors)

fc1.weight f4 [256, 768]
0.03602998 -0.013979458 0.029027652 0.028612372 0.017010337 -0.014063275 -0.0020383033 0.03262009
0.021137672 0.0038861164 0.009071547 0.0048101232 0.0283125 -0.0040270556 0.0032296944 -0.030506538
-0.023370072 0.0073401644 -0.02378755 0.018772503 0.0142471595 -0.01547412 -0.03138256 -0.021183645
0.033585742 -0.020197995 -0.030478325 0.00090563274 -0.00858065 0.027570719 -0.02147934 0.031736024
-0.020361988 0.023847798 -0.027588772 -0.025240194 -0.0029282249 0.013135185 0.035416894 -0.008365029
0.014229587 0.00899538 0.023881527 -0.013230032 -0.0063740443 0.00056581065 0.019804282 0.013185018
-0.0077306847 -0.03263485 -0.025811618 -0.017797401 0.031156486 0.03766841 0.011493786 -0.0074736583
-0.005479002 -0.03378141 0.00085175695 0.015323635 0.005526027 -0.0095021315 -0.015935028 -0.0024417825
-6.0386836e-05 -0.015484485 -0.002768717 0.0082913255 -0.007369378 0.009258333 0.0032557887 0.0127709275
0.021421151 0.00673966 0.011773739 0.02152339 -0.01096333 0.025285989 -0.01813399 -0.026749931
-0.015250866 -0.03405568 0.031011462 -0.012264683 0.012570876 -0.019904992 -0.023508718 -0.013629302
0.0019904221 0.041475672 -0.022467246 -0.025876885 0.009126066 -0.012823637 -0.029605031 0.0058335634
-0.06793636 -0.013896892 -0.034531355 -0.012948738 0.031080853 0.016031258 0.015614542 0.06140519
0.03617503 0.010904252 -0.012699062 0.009503491 0.036092263 0.01930585 0.016522823 -0.011883779
-0.027889036 -0.0046490123 0.00624899 0.022198966 -0.014474636 0.028359968 -0.026603404 -0.0043588383
-0.02992718 0.0035127832 -0.0019085533 -0.06437569 -0.021113945 -0.04989405 -0.009940124 -0.030631194
0.002915237 -0.026562026 -0.043874506 0.00610101 -0.022288224 0.013288265 -0.016345993 0.031597998
0.024506126 0.033005875 -0.025223335 0.018029828 -0.0091097085 -0.03275656 0.032870248 -0.0070910277
0.020372072 0.022792554 -0.0017393944 0.018888103 0.024796885 0.051230587 0.033500873 -0.0046355124
-0.022966305 -0.016580148 -0.00024022443 -0.02048615 -0.012689118 -0.00497745 -0.052994978 -0.005726659
-0.0061407876 -0.024468763 -0.029800901 0.028929787 0.02088797 0.04126151 0.0004959412 0.022839552
-0.0035370004 0.006239062 -0.02899466 -0.038588166 0.00049747777 0.007239752 -0.0044075865 0.031224092
0.04778894 0.07657953 0.04858683 0.0072376034 -0.00055866054 -0.05131919 -0.045613922 0.0038531774
-0.030551225 0.019715192 0.035525188 0.07007872 0.11944643 0.014770754 0.06600415 0.006044667
0.030599963 -0.012757338 -0.021768877 0.025942331 -0.0052392455 0.0050670896 -0.022109227 0.024127115
-0.030103382 -0.022787588 0.026477277 0.011157719 0.022736505 0.054431528 -0.0036303645 -0.045382947
-0.09958653 -0.101521686 -0.03764726 -0.022379396 -0.04581846 0.036913063 0.08774339 0.05652396
0.08614102 0.031793747 0.019682417 0.0014340365 0.06886066 0.05394949 -0.024186315 -0.0011310414
-0.0043631434 -0.004044594 -0.019023608 0.0041920017 0.031053297 -0.048014183 0.01870694 -0.0018408858
0.005835996 0.021827059 -0.02188761 -0.021807067 -0.017347742 -0.008055145 -0.064869784 0.008761813
0.017677762 -0.013445985 0.044516847 0.05335687 0.02349323 0.07318649 0.008337985 -0.005090306
0.074792996 0.027237276 -0.0076940656 -0.0100654 -0.008207815 0.00052078214 -0.0150401415 0.01692772
00000000: 2c94 133d 190a 65bc 66cb ed3c 7e64 ea3c
00000010: 4359 8b3c a769 66bc 0e95 05bb a59c 053d
00000020: e928 ad3c 37ae 7e3b d3a0 143c 3d9e 9d3b
00000030: 9eef e73c 64f5 83bb 48a9 533b d9e8 f9bc
00000040: 9872 bfbc c385 f03b 1cde c2bc cbc8 993c
00000050: eb6c 693c 2a87 7dbc 008b 00bd 5389 adbc
00000060: 3491 093d 4476 a5bc aead f9bc fc67 6d3a
00000070: db95 0cbc fddb e13c 71f5 afbc a2fd 013d
00000080: 2fce a6bc 755c c33c d901 e2bc 86c4 cebc
00000090: 76e7 3fbb f634 573c 4e11 113d 790d 09bc
000000a0: 3723 693c 5c61 133c 31a3 c33c c7c2 58bc
000000b0: 5cdd d0bb e952 143a 973c a23c f905 583c
000000c0: af51 fdbb 1fac 05bd e372 d3bc dbcb 91bc
000000d0: e33b ff3c 314a 1a3d 6f50 3c3c 97e5 f4bb
000000e0: 3389 b3bb 605e 0abd 7148 5f3a fc0f 7b3c
000000f0: ad13 b53b d4ae 1bbc 2d8a 82bc 5006 20bb
00000100: df47 7db8 a3b2 7dbc 5d73 35bb 57d8 073c
00000110: d37a f1bb 43b0 173c 125f 553b 273d 513c
00000120: 697b af3c 5ed8 dc3b a4e6 403c d251 b03c
00000130: 8a9f 33bc 9024 cf3c bc8d 94bc ac22 dbbc
00000140: c5de 79bc f87d 0bbd c00b fe3c cff1 48bc
00000150: 13f6 4d3c cb0f a3bc 5b95 c0bc 704d 5fbc
00000160: be71 023b 65e2 293d 3b0d b8bc c3fb d3bc
00000170: 7f85 153c 3b1a 52bc 4086 f2bc 7a27 bf3b
00000180: 3822 8bbd caaf 63bc c070 0dbd f226 54bc
00000190: 469d fe3c fc53 833c 23d4 7f3c 0284 7b3d
000001a0: 452c 143d bfa7 323c ba0f 50bc 88b4 1b3c
000001b0: 7bd5 133d 4d27 9e3c df5a 873c 2fb4 42bc
000001c0: 8c77 e4bc be56 98bb 54c4 cc3b 9bda b53c
000001d0: 0627 6dbc 2a53 e83c 62ef d9bc 96d4 8ebb
000001e0: d829 f5bc b936 663b 6c28 faba 67d7 83bd
000001f0: 27f7 acbc b45d 4cbd e7db 22bc 45ee fabc
00000200: 900d 3f3b 9b98 d9bc c1b5 33bd fbea c73b
00000210: cb95 b6bc 06b7 593c 08e8 85bc e76c 013d
00000220: 12c1 c83c 2b31 073d 2ba1 cebc 4ab3 933c
00000230: e340 15bc be2b 06bd f4a2 063d da5b e8bb
00000240: 55e3 a63c 73b7 ba3c 64fc e3ba 39bb 9a3c
00000250: d622 cb3c 2ad7 513d 3638 093d 7fe5 97bb
00000260: d523 bcbc 17d3 87bc c1e4 7bb9 92d2 a7bc
00000270: 05e6 4fbc e019 a3bb 4311 59bd b3a6 bbbb
00000280: a938 c9bb b772 c8bc 0521 f4bc 29fe ec3c
00000290: 401d ab3c d401 293d 0d02 023a 031a bb3c
000002a0: 05cd 67bb 0c71 cc3b 3686 edbc a00e 1ebd
000002b0: 2b69 023a 713b ed3b 846d 90bb abc9 ff3c
000002c0: 56be 433d bbd5 9c3d fc02 473d 6b29 ed3b
000002d0: 1373 12ba 1234 52bd aad5 3abd 9785 7c3b
000002e0: 9046 fabc c181 a13c dc82 113d 6f85 8f3d
000002f0: 54a0 f43d 0801 723c 2f2d 873d 5812 c63b
00000300: c6ac fa3c 2704 51bc a554 b2bc 0385 d43c
00000310: faad abbb d409 a63b 691e b5bc 3aa6 c53c
00000320: 5e9b f6bc 09ad babc e0e6 d83c dece 363c
00000330: e841 ba3c 98f3 5e3d 69eb 6dbb 78e3 39bd
00000340: 06f4 cbbd 9aea cfbd 0334 1abd ff54 b7bc
00000350: 23ac 3bbd 2732 173d ceb2 b33d ab85 673d
00000360: b46a b03d 293a 023d 053d a13c 48f6 bb3a
00000370: d106 8d3d 24fa 5c3d 6122 c6bc 743f 94ba
00000380: b3f8 8ebb 8388 84bb 66d7 9bbc 0f5d 893b
00000390: 7c63 fe3c 85aa 44bd 4c3f 993c e149 f1ba
000003a0: e23b bf3b a9ce b23c a54d b3bc bca4 b2bc
000003b0: da1c 8ebc baf9 03bc 73da 84bd b58d 0f3c
000003c0: f4d0 903c 8c4c 5cbc 4c57 363d bc8c 5a3d
000003d0: e074 c03c cce2 953d 0b9c 083c 95cc a6bb
000003e0: 122d 993d b520 df3c 801e fcbb 59e9 24bc
000003f0: 127a 06bc 1985 083a ed6a 76bc 00ac 8a3c

fc2.weight f4 [10, 256]
0.10317022 -0.05489317 -0.17649667 -0.22666022 -0.14895713 -0.08654301 -0.077562526 0.11949499
0.11790017 -0.14699502 0.08286089 0.13331597 -0.015455391 0.06364138 -0.120808564 0.09298321
-0.0887198 0.16521367 0.08652689 0.12775171 0.14000069 -0.14689872 -0.1643496 0.16078605
0.0028988866 -0.19870445 0.22216494 0.08684485 0.11664034 0.19376032 0.006997706 -0.092761934
0.03470094 0.10223534 0.096375875 0.031008001 -0.0037981912 0.076190405 -0.028185818 0.030909415
0.048931375 0.34377208 -0.07417665 0.09484249 -0.19518092 -0.025847543 0.05742711 -0.28670725
-0.04178981 0.16024223 -0.05296747 0.21639885 0.12281955 -0.0017110441 -0.17490132 0.009928158
-0.17756544 0.049990125 -0.046259165 0.16339056 0.015981328 -0.019088654 0.030259516 -0.12254893
-0.08060977 0.009008916 -0.018962944 0.15478128 -0.08728342 -0.10357157 0.1366816 -0.15088156
-0.16308926 0.13876368 0.1404705 -0.049486265 0.19949262 -0.11719183 0.097954735 0.12941226
0.10136728 -0.0068800403 -0.12142232 0.12081502 0.11292159 0.13721123 -0.0868053 -0.110717595
0.1194694 0.009312993 -0.14451101 -0.18485925 -0.018528929 -0.03863341 -0.1856334 0.073063366
0.042024754 -0.110934794 0.15537058 0.12337914 0.105582714 -0.07021341 0.092196085 0.024481468
0.17859797 0.10741169 -0.031489242 0.059166096 0.20047781 0.097106524 -0.13977897 0.05285368
-0.054141607 0.15077004 -0.14960183 -0.064278804 0.18043678 -0.061719418 0.11824532 -0.108305156
0.016644256 0.007201695 0.08977719 -0.14046024 0.24272905 -0.1629585 -0.033166192 -0.044860587
0.11756278 0.092747815 -0.15781276 0.092398785 0.1041662 -0.23568042 0.12480584 0.030115657
0.14993268 0.09755164 -0.06980926 0.0051292474 0.043164443 -0.056718327 -0.04499099 0.17109835
-0.02044589 -0.22179645 -0.07304775 0.07232456 -0.1310959 0.053767804 -0.1391967 -0.17696573
0.038907122 -0.08648317 0.009869084 -0.13642645 0.13196993 0.21603929 -0.017664632 -0.15835609
0.03106482 0.07560626 0.072086655 0.051277123 0.0042358884 0.06065264 -0.07525556 0.08196965
0.014274463 0.18888679 0.016357647 0.09951206 -0.12887144 0.106149755 0.060938746 -0.0031736922
0.024563463 0.17914821 0.097092025 -0.09788625 0.07634888 0.06591542 -0.15034135 0.057141006
0.11529494 -0.1446753 0.14399359 -0.024128847 -0.12842587 0.01308069 -0.06901103 0.1474934
-0.02729345 0.21021613 -0.05845972 0.19192296 -0.022276588 -0.11409822 0.046448544 0.09561002
-0.13065489 -0.005323573 -0.11677037 -0.027682776 0.07162718 -0.10453477 -0.1919717 -0.053514536
-0.0021040838 -0.027499361 -0.054524634 -0.0847695 -0.12709391 0.12059954 0.16189492 -0.0618086
0.13395303 -0.009464371 0.041212812 -0.087437265 0.08917599 0.11485886 -0.030820059 -0.10150044
0.22377466 -0.07762465 0.055887975 -0.071300395 0.025354005 0.006966864 0.1698414 0.13928014
-0.050674077 -0.09979543 0.11918723 -0.01417905 -0.089511715 0.059541184 0.062945105 0.024110453
0.088819295 0.17471257 0.03029404 -0.109605946 0.044132754 -0.0561111 0.12568027 0.24647884
0.058989156 0.019672198 -0.13346782 -0.014692049 -0.10675115 0.19591121 0.15892269 0.036273576
00000000: e94a d33d a9d7 60bd 8bbb 34be 9e19 68be
00000010: 3888 18be 763d b1bd 1ad9 9ebd cab9 f43d
00000020: a575 f13d dd85 16be f8b2 a93d fb83 083e
00000030: 9c38 7dbc 6956 823d 7b6a f7bd fb6d be3d
00000040: bab2 b5bd c62d 293e 0335 b13d 58d1 023e
00000050: 575c 0f3e 9e6c 16be 434b 28be 19a5 243e
00000060: 3ffb 3d3b 2e79 4bbe 357f 633e b6db b13d
00000070: 21e1 ee3d 1b69 463e 034d e53b f8f9 bdbd
00000080: 9322 0e3d c360 d13d b760 c53d 7e04 fe3c
00000090: 13eb 78bb b709 9c3d f2e5 e6bc be35 fd3c
000000a0: 446c 483d e502 b03e ede9 97bd c83c c23d
000000b0: 82dd 47be 3abe d3bc b038 6b3d 4bcb 92be
000000c0: cb2b 2bbd 8a16 243e 6bf4 58bd a997 5d3e
000000d0: d188 fb3d 1d45 e0ba 5519 33be b6a9 223c
000000e0: b7d3 35be 72c2 4c3d 407a 3dbd db4f 273e
000000f0: 46eb 823c cf5f 9cbc cee2 f73c effa fabd
00000100: bc16 a5bd 229a 133c 2d58 9bbc fc7e 1e3e
00000110: a6c1 b2bd 551d d4bd 43f6 0b3e b280 1abe
00000120: df00 27be 1118 0e3e 80d7 0f3e 1cb2 4abd
00000130: cb47 4c3e 4502 f0bd 7e9c c83d a684 043e
00000140: a699 cf3d f671 e1bb 44ac f8bd dd6d f73d
00000150: 6f43 e73d 1a81 0c3e fac6 b1bd e8bf e2bd
00000160: 5fac f43d 8695 183c b2fa 13be be4b 3dbe
00000170: fbc9 97bc 113e 1ebd af16 3ebe 3fa2 953d
00000180: 2622 2c3d c831 e3bd 7719 1f3e 34ae fc3d
00000190: c03b d83d 0ccc 8fbd 4dd1 bc3d 5c8d c83c
000001a0: 63e2 363e a9fa db3d ddfa 00bd 2658 723d
000001b0: 0e4a 4d3e c9df c63d 3822 0fbe 1a7d 583d
000001c0: 97c3 5dbd 7663 1a3e 3931 19be 9ba4 83bd
000001d0: 6bc4 383e 80cd 7cbd 9a2a f23d 18cf ddbd
000001e0: 8959 883c 32fc eb3b 1add b73d cfd4 0fbe
000001f0: f78d 783e 98de 26be 46d9 07bd bcbf 37bd
00000200: c1c4 f03d 91f2 bd3d ab99 21be 933b bd3d
00000210: 1755 d53d 3556 71be 349a ff3d 1cb5 f63c
00000220: f487 193e 27c9 c73d 28f8 8ebd 3f13 a83b
00000230: 33cd 303d 7a51 68bd 7948 38bd 6834 2f3e
00000240: 247e a7bc 9c1e 63be 0f9a 95bd e61e 943d
00000250: 013e 06be a13b 5c3d 9489 0ebe 8136 35be
00000260: 135d 1f3d 171e b1bd f0b1 213c 60b3 0bbe
00000270: 2023 073e 6739 5d3e 6bb5 90bc 1928 22be
00000280: a67b fe3c 74d7 9a3d 2ba2 933d f607 523d
00000290: 35cd 8a3b e76e 783d 961f 9abd b4df a73d
000002a0: 70df 693c 8a6b 413e 7900 863c fbcc cb3d
000002b0: e0f6 03be 0b65 d93d e89a 793d b8fd 4fbb
000002c0: 5139 c93c a172 373e 2fd8 c63d 9678 c8bd
000002d0: cd5c 9c3d aafe 863d 15f3 19be b00c 6a3d
000002e0: c11f ec3d c325 14be 0e73 133e dca9 c5bc
000002f0: 1282 03be 6450 563c a855 8dbd 8308 173e
00000300: 8396 dfbc e642 573e 7673 6fbd 7487 443e
00000310: 647d b6bc 54ac e9bd d440 3e3d 30cf c33d
00000320: 65ca 05be 5e71 aebb 4e25 efbd fdc6 e2bc
00000330: 45b1 923d 5316 d6bd 3b94 44be 0f32 5bbd
00000340: abe4 09bb 5746 e1bc 3955 5fbd a29b adbd
00000350: e824 02be e4fc f63d c8c7 253e 042b 7dbd
00000360: fc2a 093e 7310 1bbc c4ce 283d 4f12 b3bd
00000370: e7a1 b63d 1f3b eb3d 597a fcbc 76df cfbd
00000380: 2f25 653e acf9 9ebd caea 643d f105 92bd
00000390: 34b3 cf3c 4b4a e43b e7ea 2d3e 749f 0e3e
000003a0: 9f8f 4fbd 8c61 ccbd 6f18 f43d 3f4f 68bc
000003b0: eb51 b7bd 75e1 733d 5de9 803d 4983 c53c
000003c0: e4e6 b53d dae7 323e 352b f83c 1579 e0bd
000003d0: 8cc4 343d c1d4 65bd 54b2 003e f364 7c3e
000003e0: 9d9e 713d 9727 a13c caab 08be ebb6 70bc
000003f0: 59a0 dabd f39c 483e a1bc 223e 9a93 143d
