bnn_model_32.pth (torch, 101174 bytes, 2 tensors)

fc1.weight f4 [32, 768]
000000 3a 4b 1f bd 3d 42 14 bc bb 45 80 bc 42 13 a6 bc
       -0.0388901 -0.009048996 -0.01565825 -0.020272855
000010 0a 6b 00 bd 00 9a a1 3c 9f 0c cc 3b c4 65 f0 3c
       -0.03135208 0.019726753 0.0062270905 0.0293454
000020 c2 2d 34 39 9a 97 5a 3a fa 2d a1 3c 73 5e 19 bc
       0.00017183184 0.00083386304 0.019675244 -0.009360897
000030 8c 9f 4d bc e2 0f b9 3c e7 2d d4 bb 9a c1 02 bd
       -0.012550246 0.022590581 -0.0064751985 -0.031922914
000040 db ce cc bb 53 bd 29 bc c4 cc 17 bd d8 97 8c bc
       -0.006250245 -0.01036008 -0.037060514 -0.017162248
000050 56 b8 f4 bc cb d0 be 3b 6e e9 a9 3c af 2e 20 bc
       -0.029873054 0.00582323 0.02074119 -0.009776755
000060 96 3e 94 bc b0 be 25 bd 13 cb ca bb 7c 19 b9 bc
       -0.01809625 -0.040465057 -0.006188759 -0.02259516
000070 87 53 78 bb aa fc 0a bd 12 58 a0 bc 0f c6 25 bc
       -0.0037891583 -0.033932365 -0.019573245 -0.010118022
000080 1e 3f fe 3b f4 cc e1 bc 40 4a fa 3b 03 c0 9b 3c
       0.007758989 -0.02756355 0.007638246 0.019012457
000090 fc 65 7b 3c e9 f0 67 bc 86 e5 08 bc e1 a5 e1 bb
       0.015344139 -0.014156559 -0.008355504 -0.0068862294
0000a0 23 b3 54 bc 18 7f 05 bc a6 93 1a 3b 60 eb d9 3b
       -0.012982163 -0.008147977 0.002358654 0.0066503733
0000b0 22 10 e9 3b 72 7d 0c bd 71 c1 16 bd 07 73 ea bc
       0.007112519 -0.03429932 -0.036805574 -0.028619302
0000c0 51 8e 4b bc 52 a3 a9 bc 56 f5 1a 3c 09 89 43 3c
       -0.012424068 -0.02070776 0.009457907 0.011934527
0000d0 03 9e 15 bc 27 6a 02 bc 50 97 80 3a f8 10 c2 bc
       -0.009131911 -0.007959879 0.000981072 -0.023689732
0000e0 d5 10 7b 3c 2c c8 a7 bc 31 b7 09 bc 38 dd ea bb
       0.015323837 -0.020481192 -0.008405493 -0.0071674846
0000f0 62 8d d5 bb 2c 62 a6 3c 57 8f 10 bd 99 08 0e bd
       -0.0065170983 0.020310484 -0.03529295 -0.034676168
000100 b8 04 b4 bc 9e 7a 20 bc f1 e1 c4 bc 51 57 af bc
       -0.021974906 -0.009794859 -0.024033519 -0.02140394
000110 3f 3b 2c bd 96 6a 50 bc 56 0a 48 bc 52 3c 3b bc
       -0.04204869 -0.012720725 -0.0122094955 -0.011427956
000120 ec 65 22 bd 3f b3 a5 bb f0 32 d1 bc 64 b7 af bc
       -0.03964798 -0.005056768 -0.025536984 -0.021449752
000130 10 c4 3e bd 44 8f 0c bd d0 44 05 3c 37 e0 8a bc
       -0.0465737 -0.034316316 0.008134082 -0.016952617
000140 92 46 d9 3c 11 4f d3 bc bc 91 d6 bc 6f 18 04 bc
       0.026522908 -0.025794538 -0.026192538 -0.008062466
000150 d2 04 f7 bc 4f 89 75 bc cd f7 b0 3c 61 e9 10 bc
       -0.030153666 -0.01498635 0.021602536 -0.008844704
000160 4c ad ad bc b6 cc 04 bd 4f 3a ab bc 9d cd 81 3b
       -0.021200798 -0.03242179 -0.020901827 0.0039612786
000170 27 9f 8f 3c 2a 3f a7 bb 42 ed 0f 3c 46 6a 82 3b
       0.017531944 -0.0051039653 0.008784594 0.003979954
000180 64 5e 9f 3c 8e 6e 17 3c 12 1b 08 bd c8 e8 ee 3b
       0.019454189 0.009242667 -0.03322894 0.0072909333
000190 ae 5a 0e bd cc 00 98 bd ce a5 46 bd e8 dd 87 bd
       -0.034754448 -0.07422027 -0.048497967 -0.06634122
0001a0 0c 80 fc bc b7 dd 77 bd 19 14 74 bc 4c 22 88 bc
       -0.030822776 -0.060514178 -0.01489737 -0.016617917
0001b0 b6 49 42 bc 27 34 88 bc 5e 89 b4 bc 03 ac 82 3b
       -0.011858394 -0.01662643 -0.022038158 0.0039877906
0001c0 0f d5 5e ba af 28 85 bc d3 f4 98 bc 00 ba d5 3c
       -0.0008500376 -0.016254751 -0.018671429 0.026089668
0001d0 cd bb f4 bc d8 e4 01 3d e9 1d 75 bc 54 87 34 3c
       -0.029874707 0.031712383 -0.014960744 0.011018593
0001e0 4a 3f c9 bc 9d d9 70 bb a6 d0 9a bb e6 72 b6 3d
       -0.024566311 -0.0036750801 -0.00472458 0.08908634
0001f0 bf b5 8a 3d ef 82 c4 3d 8d b9 ca 3d d4 63 52 3d
       0.067729466 0.09595286 0.09898672 0.051364735
000200 f5 0f c1 3d bc ac bb 3d 3d ca 83 ba a5 d8 e2 bc
       0.09426872 0.09163806 -0.0010054779 -0.027691195
000210 ab ce 81 3c 36 2f 91 bb 30 fc 9c bd 95 ef 6f bd
       0.015845617 -0.004430677 -0.076652884 -0.058578093
000220 b1 91 2f bb 46 d7 cb 3c d7 6e 52 3c 7d 37 69 bb
       -0.002678972 0.024882924 0.012843809 -0.0035586052
000230 9f ee 80 3c 54 72 cf 3c 99 fb e1 bc 1c b2 f2 bc
       0.015738783 0.02532307 -0.027585791 -0.029625945
000240 a0 a9 f6 bc b3 53 97 bc 60 8c f6 bb 0c 5c 2a bc
       -0.03011018 -0.018472528 -0.007524058 -0.010397922
000250 5b 0d 96 3c e8 4a 86 3c 7e eb 86 3d a3 90 21 3d
       0.018316915 0.01639314 0.06587885 0.039444577
000260 dc fc c4 3d b9 bd 42 3d 76 b2 ca 3c 7d 42 3d 3d
       0.096185416 0.047544215 0.0247433 0.046205986
000270 4f 82 8d 3d bb 3a 72 3d 57 50 53 3d bb 9c 24 3d
       0.0690962 0.05913804 0.05159029 0.040188532
000280 c5 81 57 3d 63 32 12 3d 08 01 96 3c a8 bd 16 bd
       0.052613992 0.035692584 0.018311039 -0.036801964
000290 a8 3f 13 bd 20 24 95 3c 3b 7a 09 3d e1 33 77 bb
       -0.03594938 0.018205702 0.033563834 -0.0037720131
0002a0 14 6d 06 bd df e5 50 3c dc ac 34 bb 2b dd c7 3b
       -0.03281887 0.012750118 -0.0027568853 0.0060993633
0002b0 c2 f9 d3 3c a1 d4 04 bd 52 5d e9 3c 09 08 8c bb
       0.02587593 -0.03242934 0.028486881 -0.004273419
0002c0 62 d6 86 3d 38 ae 42 3d ce ea d3 3c 2f da de 3c
       0.06583859 0.04752943 0.0258688 0.027203647
0002d0 83 0c 7b 3d c5 5b 6f bb 72 f1 55 3d 65 c9 9e 3d
       0.06129123 -0.0036523205 0.052232213 0.07753257
0002e0 f0 97 c1 3c 02 84 bd 3c 18 33 df 3c 9b bc cb 3c
       0.02363202 0.023134235 0.027246043 0.024870208
0002f0 a7 ee 82 3d 81 6b 3d 3c b3 5d 56 3d 0c 83 f9 3c
       0.063931756 0.011561275 0.052335452 0.030457996
000300 77 ee 8a 3c 44 57 71 3d 63 bc 2f 3d f3 3e 82 3c
       0.016959412 0.058921114 0.04290427 0.015899157
000310 80 a7 16 bd a9 0d c4 bc 55 22 5d 3c b3 68 da bb
       -0.036780834 -0.023932295 0.013496955 -0.006665313
000320 7e 88 39 bc fd 27 2b 3d 26 6a 1d 3c 18 c7 5c 3d
       -0.011324046 0.041786183 0.009607827 0.053900808
000330 62 73 5d 3a 09 82 1a 3c 8d c9 83 3c 92 45 37 3d
       0.00084476743 0.009430417 0.016087318 0.04474408
000340 d0 c4 0e 3d e7 40 87 3d ec 21 9c 3d 1a 1c 82 3d
       0.034855664 0.06604176 0.076236576 0.06353016
000350 e9 8f f1 3c 95 8b 25 3c 3e ba 9c bc 77 51 36 bc
       0.029487567 0.01010408 -0.019131776 -0.011127821
000360 e5 7b 3c 3d 5c 7a 1c 3d 48 89 fd 3b e6 50 40 3c
       0.046016593 0.03820263 0.0077373125 0.011738038
000370 2e e5 99 3d e5 48 56 3d 85 06 88 bc 67 b9 db bc
       0.07514416 0.05231561 -0.016604671 -0.026821805
000380 ef d9 d4 bb b1 49 c3 3b a0 36 83 3c f9 73 2f bd
       -0.0064957063 0.0059597124 0.016017258 -0.04283521
000390 be 8f 3d 3c 37 f6 82 3d 19 cb 59 bc 62 fc be 3c
       0.011569915 0.06394618 -0.013293051 0.023313705
0003a0 2c 78 8a 3c ec 1c 02 bd 43 ff 47 3d 77 2d ac 3d
       0.016903006 -0.031765863 0.04882742 0.08407109
0003b0 31 72 a3 3d bf 13 8d 3d 60 ac 8d 3d 1d 36 69 3d
       0.07980765 0.06888532 0.069176435 0.056936372
0003c0 88 6e b1 3d 8c 26 65 3c af ee 2e 3c 35 a6 84 3d
       0.0866366 0.013986241 0.010677024 0.06477014
0003d0 ba 53 1d 3b 8b 00 e5 bc 3c 17 13 3d d1 60 46 3d
       0.0024006204 -0.02795436 0.03591083 0.048432175
0003e0 53 bf 33 3d c2 9f b5 3d ef cb be 3c d2 28 40 3b
       0.043883633 0.08868362 0.023290602 0.0029321206
0003f0 e8 96 4e 3c 8d 43 61 bc 01 87 86 3c a9 36 a6 3c
       0.012609221 -0.0137490155 0.016421797 0.020289736

fc2.weight f4 [10, 32]
000000 5c a3 80 3e bb eb b5 3e 9d 85 5c be 98 5e a9 be
       0.25124633 0.3553141 -0.21535344 -0.33079982
000010 99 be bd 3e 41 db 88 3e 3d fb cc be 6f 96 5a be
       0.37059477 0.26729777 -0.4003543 -0.21346448
000020 fe af bd 3e ef 8d 9e be 2b c8 a3 3e 20 35 6f 3e
       0.37048334 -0.30967662 0.31988654 0.2336011
000030 9e 64 36 be 93 21 21 3e ea a1 9b be 85 fb 85 3e
       -0.1781182 0.15735464 -0.30396968 0.26168457
000040 7b d3 eb be f9 95 36 3e 3a 46 dc bd 4f 29 ce 3e
       -0.46059784 0.17830648 -0.10755582 0.4026589
000050 a8 5a 9c 3e 9d 4e 3e 3e 29 0d de be fd 2b aa 3e
       0.30537915 0.18584676 -0.43369415 0.33236685
000060 eb 13 cb 3e d6 6f bd 3e bc b8 44 3e d5 82 8f be
       0.39663634 0.36999387 0.19211096 -0.28029504
000070 a1 b8 47 be 2b 9c cb be e2 47 e7 be 1a 02 46 bd
       -0.19504024 -0.39767584 -0.4517203 -0.048341848
000080 11 9b 58 be 99 45 ae be 47 aa ba 3e dd 6c b8 be
       -0.21152903 -0.34037474 0.36458036 -0.36020556
000090 1a 52 3a 3e 59 5d 19 be 01 c7 b1 3e 89 d4 97 3e
       0.18195382 -0.14977016 0.3472214 0.2965434
0000a0 b2 c9 49 3e 6e a4 a6 3e b7 08 d9 3e eb e9 84 be
       0.19705847 0.32547325 0.4238946 -0.25959715
0000b0 9f 0f f9 be e0 f5 94 be 36 6f a1 3e ed 05 a7 be
       -0.4864473 -0.29093838 0.3153016 -0.3262171
0000c0 6a 03 12 3e 5a 35 a8 3e a3 a6 aa 3e 21 9d 4b 3e
       0.14259115 0.32853204 0.3333026 0.19884159
0000d0 d4 7e 0f be 9e 92 b2 3e c9 1c 85 3e 1f f7 86 3e
       -0.14013225 0.34877485 0.25998524 0.26360413
0000e0 05 ad b4 3e b8 e1 32 3e 6a c5 a1 be 3d ff a8 3e
       0.35288253 0.17468917 -0.31595927 0.3300723
0000f0 bc 30 c1 3e de 96 92 3e d0 06 b2 be 85 71 94 be
       0.37732494 0.28630728 -0.34770823 -0.2899286
000100 10 b6 1e 3e 20 76 89 be bd 57 bd be 63 44 d1 be
       0.15499139 -0.26847935 -0.36981001 -0.40872487
000110 32 1b ae 3e 7a 06 c9 be d9 fb e2 3e 66 f9 cb be
       0.34005123 -0.39262754 0.4433277 -0.39838713
000120 55 60 53 be be fa 9c 3e b5 53 0d bf 8a ef be be
       -0.20642217 0.3066005 -0.5520585 -0.3729213
000130 00 2e 33 be d0 0a b3 3e 01 0e f8 be 21 d4 f2 3e
       -0.17498016 0.34969187 -0.48448184 0.47427467
000140 91 6b ae be e3 74 00 bd 05 f5 69 3d 63 df 69 3e
       -0.34066442 -0.03136147 0.057118434 0.22839122
000150 25 6f 55 3d 3f 91 ea 3e 11 11 de be 2a 71 3a be
       0.05210795 0.4581394 -0.43372396 -0.18207231
000160 c0 ef ec be 63 56 08 bf 69 87 3a be d1 e3 90 3e
       -0.46276665 -0.53256816 -0.18215717 0.2829881
000170 c9 9c 09 bf 33 e8 25 3e 7c d0 02 bf aa 1e df 3e
       -0.5375486 0.16201858 -0.5109937 0.43578082
000180 13 36 60 3e 3e 80 ec bd 1c ac 81 be 14 53 20 3e
       0.21895628 -0.11547898 -0.25326622 0.15656692
000190 5d 16 bf be 13 c7 bb be c4 e3 b6 3e ff ca 94 be
       -0.3732175 -0.3667532 0.35720646 -0.29061124
0001a0 3b 73 ce be a1 ff f9 be 0d c5 a5 3e cf 4b b5 3e
       -0.4032229 -0.48827842 0.323769 0.354094
0001b0 84 6b 85 3e 32 8b ec 3e fe ed c8 be 73 ce 31 3e
       0.2605859 0.46199948 -0.39244074 0.1736391
0001c0 ab 1a 9c bd 42 b7 83 3e 0d a4 4e be dc 6f b0 3e
       -0.07622274 0.25725752 -0.20179768 0.34460342
0001d0 46 ce fb 3e 1a 6f c2 be dd 07 c8 3e 4f 66 68 3e
       0.49180812 -0.3797539 0.390685 0.22695278
0001e0 7c 7b 8c be 9f a3 98 3e 5f 61 d5 be 37 a9 f1 3e
       -0.2743796 0.29812333 -0.4167585 0.47199413
0001f0 e7 32 d5 3e f1 c8 ca 3e 56 c6 d2 3e d8 2c 16 3e
       0.41640398 0.3960643 0.41166943 0.14665544
000200 8a 0a bc be ef f0 84 3e 50 05 88 be 77 b1 84 3e
       -0.3672679 0.25965068 -0.26566553 0.25916645
000210 0e 90 98 be 44 69 dd 3e bf 3e db be 7d ed a3 3e
       -0.29797405 0.43244374 -0.4282131 0.32017127
000220 71 fb be be 65 c7 89 be 5f a2 ae be de f4 fa 3e
       -0.3730121 -0.26909938 -0.34108254 0.49014944
000230 a7 cd 74 be c6 d3 ae be e5 0a 5a 3e ef 66 d2 3e
       -0.23906575 -0.34145945 0.21293218 0.41094157
000240 2d 7b b4 be 88 18 eb 3e ae 56 b1 3e c8 9d 89 be
       -0.35250226 0.45917153 0.34636444 -0.2687819
000250 e8 c9 c2 be b7 85 ea 3e 53 94 a8 be 38 7d 7d be
       -0.38044667 0.4580514 -0.32925662 -0.24754798
000260 71 ea da be a2 9b c0 be 11 7f a0 be 03 ca 8f be
       -0.4275699 -0.37618738 -0.31346944 -0.2808381
000270 66 93 b7 3e d3 29 bb be cb 63 af 3e 16 b3 c6 3e
       0.35854644 -0.36555347 0.34255823 0.38808507
000280 f2 93 0c 3e 99 e4 83 be 8c 6d 8b bb ff 5f 60 be
       0.13728312 -0.25760344 -0.0042550024 -0.2191162
000290 57 68 da be 68 e2 c2 3e d6 41 4c be 15 66 e1 be
       -0.4265773 0.3806336 -0.1994699 -0.44023195
0002a0 13 4d ca 3e 01 5a 93 be 00 79 9c 3e 5d 52 2b 3e
       0.39511928 -0.28779605 0.30561066 0.16730638
0002b0 1b d3 09 bd b4 24 c1 be ea 8c bc be 13 4d 9a 3e
       -0.03364859 -0.37723315 -0.3682626 0.30136928
0002c0 55 90 1c 3f 33 cd ee 3e ae 78 9b bd 0b c9 e6 be
       0.61157733 0.4664093 -0.07591377 -0.4507526
0002d0 08 74 f9 3e c9 db ac bd c7 ed d1 3e 83 f1 d7 3e
       0.48721337 -0.08440358 0.41001722 0.42176446
0002e0 62 73 49 be 66 6d b9 be d9 8d 04 3f 23 30 da be
       -0.19672921 -0.36216277 0.5177894 -0.4261485
0002f0 94 43 d5 be ec 90 c0 3e 48 8c 0e bc 43 44 95 be
       -0.4165312 0.37610567 -0.008700438 -0.29153642
000300 43 87 95 be f7 41 dc 3e 9b a0 d5 3e 9f 6e 89 be
       -0.2920476 0.43019077 0.41724095 -0.2684221
000310 61 87 8f be ac 4b ca 3e fb 4a bf 3e eb 23 7c be
       -0.28032973 0.39510858 0.37361893 -0.24623077
000320 d2 cb 5d 3e c0 ba 9b 3e 41 1b 17 be 69 20 bf 3e
       0.21659783 0.30415916 -0.1475649 0.37329414
000330 b0 30 a8 be 7f 65 1a 3e ea 88 98 3e a4 7d 56 3e
       -0.32849646 0.1507778 0.29791957 0.20946366
000340 94 a7 99 3e 84 18 9b be 33 54 dd be 79 fe fc 3d
       0.30010664 -0.3029214 -0.432283 0.12353224
000350 31 c9 e8 3d 90 c5 97 3e b2 d1 9f be e0 92 42 be
       0.11366499 0.29642916 -0.31214672 -0.19001341
000360 00 f9 a8 3e 2f 29 9b be 55 15 9b 3e 1f 87 a0 3e
       0.33002472 -0.30304858 0.30289713 0.3135309
000370 b6 5f 56 be 03 bc 6a be c8 00 8e 3e e5 9b 88 be
       -0.20934948 -0.22923283 0.2773497 -0.26681438
000380 48 10 f3 be be 05 e2 3e 2a 17 de 3e 53 65 a8 3e
       -0.4747336 0.44145006 0.43377048 0.32889804
000390 16 e1 76 3e b9 9f d4 3e 9c c7 91 be 51 19 ad 3e
       0.24109301 0.4152811 -0.28472602 0.33808377
0003a0 3e 6a 58 be 6e 3e 7c be d1 f2 f5 be e5 58 16 3e
       -0.21134278 -0.2463319 -0.48036817 0.14682348
0003b0 33 5c b1 3e e1 66 ab 3e 12 bc 87 be 38 0c d0 be
       0.34640655 0.33476928 -0.26510674 -0.40634322
0003c0 ed 00 88 3e d3 b6 57 be be 96 ba 3e 1c 26 80 be
       0.26563206 -0.21065836 0.36443132 -0.25029075
0003d0 0e da b3 be 56 dd 87 bd 2d ce 28 3e b8 1a da 3e
       -0.351273 -0.06634013 0.164849 0.4259851
0003e0 fc ea 46 be bc b9 b6 3e 41 88 49 be 1e f6 80 bd
       -0.19425577 0.3568858 -0.19680883 -0.06296943
0003f0 60 20 af be 93 ff 94 3e 9e e0 d0 be 8e 16 90 3e
       -0.34204388 0.29101238 -0.4079637 0.28142208
