bnn_model.pth (torch, 300324 bytes, 2 tensors)

fc1.weight f4 [96, 768]
0.0081476085 -0.034564067 -0.021569042 -0.04103824 0.026974557 -0.016304398 -0.0012692031 -0.03455409
-0.015995715 0.0040624123 -0.022436967 -0.0033160239 -0.023032574 -0.0077615096 0.025801508 -0.0071211252
-0.039081555 0.020703869 0.015694141 -0.025203241 0.0039282544 0.030427946 0.000115946284 -0.003549163
-0.0088543 0.027121363 -0.04021671 -0.0017872285 -0.015558202 -0.026879663 -0.00785763 0.023383873
0.00528529 0.026569366 0.0014533139 -0.0021046293 0.015733622 0.023857895 -0.013593155 0.0010060184
0.0047458154 0.00097483525 -0.034759272 0.023281593 -0.0006739439 0.0074858153 0.0009639346 0.0088429
0.014875036 -0.019785441 -0.032176387 -0.011025674 -0.022311615 -0.032278355 -0.013941741 -0.036668953
-0.023897702 0.03006914 0.023899626 -0.0059332233 -0.0014565822 -0.021411737 -0.002404742 -0.032216642
-0.049961947 -0.056694187 0.009705557 -0.04639136 -0.029588964 -0.02334931 -0.03729249 -0.057983134
-0.020038174 0.013051613 -0.006491318 -0.032435555 -0.01573834 -0.0033251853 -0.041520916 -0.03513274
-0.028224366 0.01439269 -0.014671309 -0.02807772 -0.03338034 0.015597656 -0.03400106 0.020047082
0.0056020617 -0.004975734 0.0056198663 -0.025140747 -0.020232597 0.027124954 -0.03613268 -0.0019596354
-0.02513276 -0.034831643 -0.00059677 0.04251665 0.0055764597 0.029132413 0.010650774 0.016116247
0.02082024 -0.03534804 0.010154942 -0.013676699 -0.029447054 -0.02500286 0.024580617 -0.02530664
0.02277947 -0.013906406 -0.017157601 -0.033651374 0.0018395705 -0.019648615 0.048583012 0.034405727
0.017546449 -0.039584056 0.0047380407 0.020759672 -0.00085350126 0.029459422 0.08134179 0.07931034
0.046934776 0.018355194 0.054553356 0.023970474 0.006797752 0.0057784114 0.013372608 0.045097224
0.018137751 -0.030914064 -0.0018943148 -0.015356616 -0.0044127214 -0.004029404 0.015262271 0.0013641018
-0.034092497 0.03178244 0.02771212 -0.0072077066 0.058188975 0.041904453 0.040657207 -0.02357717
0.00023024886 0.037413735 0.022915145 0.043168575 0.045340475 0.02331517 0.011111343 -0.007237533
-0.034608744 -0.02856262 0.06244359 0.060027257 -0.016635414 -0.017061448 0.007014239 0.023984151
-0.0076042884 0.021899762 0.007076822 -0.0040402915 0.03390511 0.04069272 0.0764832 0.008332195
-0.015197712 -0.023681788 0.033487346 0.010397546 0.027045919 0.0073609464 -0.10433965 -0.10206691
-0.06823453 0.042460132 0.06747765 0.018602611 0.010640967 0.026750868 0.08463108 0.061526224
0.036610898 -0.027938075 -0.018572206 0.020722458 -0.011563848 -0.019164948 -0.034298275 0.014696026
0.03133085 0.033914626 0.049833655 -0.015146627 0.0019255916 0.012247177 0.01965627 0.030434655
-0.032705918 -0.046984628 -0.09868799 -0.041333746 -0.07514565 0.050572034 0.020363549 -0.03809798
-0.005705295 -0.034541823 0.00020388553 -0.007483726 0.01750862 0.027144613 0.019865025 -0.023007615
0.029977625 -0.033533804 -0.02854482 -0.019475449 0.003861036 0.051888328 -0.010059482 0.005990797
0.04599177 0.0018316557 -0.050820578 -0.034679458 -0.023207173 -0.024794195 -0.05021212 -0.033615846
-0.0034391126 0.0078098527 -0.018737849 0.01529589 -0.01230518 0.04974635 -0.017823905 0.010496383
0.021128656 -0.03399849 -0.037075214 -0.02019735 -0.031659137 -0.02169294 -0.01788793 -0.017122755
00000000: 8c7d 053c 0d93 0dbd 8fb1 b0bc b717 28bd
00000010: bff9 dc3c cd90 85bc 645b a6ba 9788 0dbd
00000020: 7209 83bc fc1d 853b bbcd b7bc a651 59bb
00000030: cfae bcbc 4354 febb af5d d33c 5458 e9bb
00000040: fb13 20bd 299b a93c 0091 803c 0777 cebc
00000050: 96b8 803b 0744 f93c 3028 f338 1399 68bb
00000060: a011 11bc 9f2d de3c 47ba 24bd 7041 eaba
00000070: d4e7 7ebc bd32 dcbc 4abd 00bc 898f bf3c
00000080: 3a30 ad3b 00a8 d93c 1f7d be3a d2ed 09bb
00000090: cce3 803c a271 c33c d3b5 5ebc 60dc 833a
000000a0: c982 9b3b 168c 7f3a bd5f 0ebd 0ab9 be3c
000000b0: 9cab 30ba 924b f53b 8eb0 7c3a d0e1 103c
000000c0: 6cb6 733c 1415 a2bc 63cb 03bd 07a5 34bc
000000d0: d9c6 b6bc 4f36 04bd e66b 64bc 2f32 16bd
000000e0: 1dc5 c3bc 8f53 f63c 26c9 c33c 7c6b c2bb
000000f0: caea beba ab67 afbc e098 1dbb 99f5 03bd
00000100: e6a4 4cbd 2a38 68bd 0e04 1f3c de04 3ebd
00000110: 8e64 f2bc 0d47 bfbc 03c0 18bd b97f 6dbd
00000120: 1927 a4bc 6fd6 553c 1fb5 d4bb 25db 04bd
00000130: b1ed 80bc 5aeb 59bb d611 2abd 59e7 0fbd
00000140: c936 e7bc 51cf 6b3c ee5f 70bc 3f03 e6bc
00000150: d3b9 08bd 508d 7f3c b244 0bbd c739 a43c
00000160: 8091 b73b 7b0b a3bb db26 b83b f8f3 cdbc
00000170: d5be a5bc 2735 de3c dcff 13bd 3a6d 00bb
00000180: 38e3 cdbc a0ab 0ebd 8f70 1cba f025 2e3d
00000190: bcba b63b 19a7 ee3c 9680 2e3c 3806 843c
000001a0: 358f aa3c 1bc9 10bd ea60 263c 3c14 60bc
000001b0: f33a f1bc ccd2 ccbc 4a5d c93c df4f cfbc
000001c0: 039c ba3c b2d7 63bc 198e 8cbc 06d6 09bd
000001d0: be1d f13a 22f6 a0bc fbfe 463d 05ed 0c3d
000001e0: 92bd 8f3c e422 22bd 9141 9b3b 3010 aa3c
000001f0: 80bd 5fba e354 f13c 8696 a63d 766d a23d
00000200: ae3e 403d a25d 963c 5773 5f3d ba5d c43c
00000210: adbf de3b d458 bd3b c918 5b3c deb7 383d
00000220: 9f95 943c 7e3f fdbc a84a f8ba 519a 7bbc
00000230: 9798 90bb 1709 84bb 9b0e 7a3c a9cb b23a
00000240: 93a4 0bbd 4e2e 023d 8704 e33c a02e ecbb
00000250: 9057 6e3d 01a4 2b3d 2c88 263d e924 c1bc
00000260: f56e 7139 253f 193d 8bb8 bb3c 88d1 303d
00000270: efb6 393d 75ff be3c 5a0c 363c d428 edbb
00000280: e6c1 0dbd 28fc e9bc dac4 7f3d 24df 753d
00000290: fe46 88bc 73c4 8bbc b4d7 e53b 697a c43c
000002a0: 652d f9bb 2167 b33c b0e4 e73b 6c64 84bb
000002b0: 16e0 0a3d 69ad 263d 39a3 9c3d c283 083c
000002c0: d3ff 78bc 4f00 c2bc 072a 093d 785a 2a3c
000002d0: 678f dd3c 1834 f13b 07b0 d5bd 7508 d1bd
000002e0: 8cbe 8bbd adea 2d3d b931 8a3d 8164 983c
000002f0: 7357 2e3c a324 db3c 0f53 ad3d ec02 7c3d
00000300: 4ff5 153d 64de e4bc bd24 98bc 25c2 a93c
00000310: 4b76 3dbc cfff 9cbc 597c 0cbd 9ac7 703c
00000320: c754 003d 10ea 0a3d 601e 4c3d 8f29 78bc
00000330: 2264 fc3a 62a8 483c 3006 a13c 1952 f93c
00000340: a4f6 05bd f472 40bd ee1c cabd 934d 29bd
00000350: f6e5 99bd 9f24 4f3d 75d1 a63c a10c 1cbd
00000360: 7cf3 babb ba7b 0dbd 1bca 5539 0b3a f5bb
00000370: 3d6e 8f3c 615e de3c fabb a23c 777a bcbc
00000380: a393 f53c be5a 09bd d4d6 e9bc fa8a 9fbc
00000390: 6f09 7d3b db88 543d 87d0 24bc 734e c43b
000003a0: de61 3c3d 2b14 f03a 3d29 50bd 0c0c 0ebd
000003b0: f81c bebc 321d cbbc 39ab 4dbd c5b0 09bd
000003c0: bc62 61bb cbe9 ff3b 1e80 99bc 9d9b 7a3c
000003d0: aa9b 49bc d4c2 4b3d 7003 92bc 05f9 2b3c
000003e0: 0116 ad3c 0042 0bbd 2edc 17bd ea74 a5bc
000003f0: 03ad 01bd 64b5 b1bc b589 92bc 0545 8cbc

fc2.weight f4 [10, 96]
0.101491444 -0.2588492 0.25269926 0.09651454 0.15227 0.13930418 0.25410202 -0.2629679
-0.093024254 -0.3236079 -0.2536495 0.08202972 -0.18528405 -0.18676142 0.2678061 0.20597707
-0.15518077 0.043199353 -0.111426555 0.1385086 -0.035582915 -0.09243117 0.09548152 0.1250539
-0.1617001 -0.18507844 -0.12087025 0.20660877 0.13019696 -0.25325832 0.036863275 0.1984902
0.07841192 0.14299087 0.046880085 0.2634765 0.18373647 -0.18955265 0.15333553 0.13031216
0.13543972 -0.09433081 0.23233551 0.3452646 0.23800568 -0.25134465 -0.08004513 -0.16145812
-0.30968273 0.24899004 -0.15010075 0.24263464 -0.2306285 0.28246856 0.024521988 0.16805641
-0.19360772 0.1329655 -0.2726228 0.2075003 0.0034416572 0.11921988 -0.15293106 -0.21776313
-0.10802354 -0.19857143 -0.18401788 0.022164019 -0.022312136 0.3067969 -0.2090351 -0.09394263
0.2640504 0.17681594 0.28488448 0.19789879 0.2143261 -0.21669877 0.14382307 -0.27372208
-0.1427503 -0.15656786 0.2124485 -0.22910579 0.10690268 -0.30739725 0.040052325 -0.0660929
0.10072645 -0.024682602 -0.16524479 0.056409646 0.19859114 -0.22612959 -0.24959339 -0.07646574
-0.16973463 0.10930826 -0.039533835 0.18238549 -0.135437 -0.20122361 0.25887913 0.09839843
0.27224842 0.24404193 -0.19520447 0.21985817 -0.1954367 -0.23426381 0.043330513 -0.11556359
-0.18903144 0.03162775 0.17729591 -0.22200075 0.23167619 -0.083374605 0.13972944 -0.13010778
0.096195556 0.043681964 0.12049713 -0.20680106 -0.24526949 -0.25990492 -0.2541019 -0.060483836
-0.25031632 -0.07715292 -0.19102882 -0.11063113 -0.06682441 0.18607908 -0.1995479 -0.20701645
0.11769004 -0.0701008 0.18103968 0.1597744 0.19842045 0.22557534 -0.25304002 -0.12268689
-0.22484528 -0.20051205 -0.2276575 0.037011623 -0.16553214 -0.15941134 -0.28264877 0.26472256
0.1730568 0.10780685 0.13318567 -0.12403278 -0.18273751 -0.041688707 0.05715663 0.19463706
-0.25611773 -0.24585393 0.18005498 0.011628556 -0.13366644 -0.11623354 0.10786005 0.060212173
-0.107269384 -0.22759667 -0.23926868 -0.18673956 0.052954827 -0.26072165 -0.172698 0.14336884
0.17159656 0.24074054 -0.22483532 0.11186889 -0.17255154 -0.10145827 0.05282837 0.0032961622
-0.22532788 0.07064549 0.14544624 -0.36997965 -0.115287915 0.18834947 0.16029866 -0.16473785
0.11185094 0.19214284 -0.19909544 -0.17907943 0.38588825 -0.23861162 -0.36693826 0.11062713
0.055701677 0.19138141 0.18306804 0.20575748 -0.22687207 -0.18947664 -0.28531554 0.23611623
0.13393003 0.2726199 -0.23893508 -0.2882854 0.078340575 -0.42190284 -0.18359189 0.14256492
-0.35489425 0.18940704 0.0019892137 0.20962065 -0.3013507 -0.12999761 0.035497267 -0.25730595
-0.33688882 -0.2995989 0.08774083 0.13797708 -0.25746545 -0.22591816 0.08213292 0.3813121
-0.29894146 0.03943443 0.43732536 0.19407617 0.3310967 -0.25988427 0.016103307 -0.26780245
-0.0514641 -0.18072075 0.28864685 0.09613493 0.16037694 0.10629478 0.16422956 -0.26127487
-0.23975642 -0.20911193 -0.34048405 0.081037864 0.2278854 0.1254174 0.20963816 0.10248572
00000000: bfda cf3d e287 84be cc61 813e 6aa9 c53d
00000010: abec 1b3e c1a5 0e3e a919 823e bba3 86be
00000020: 8083 bebd efaf a5be 59de 81be 33ff a73d
00000030: 1abb 3dbe 633e 3fbe e21d 893e a7eb 523e
00000040: b5e7 1ebe cef1 303d 9b33 e4bd 33d5 0d3e
00000050: 64bf 11bd 8e4c bdbd d18b c33d 210e 003e
00000060: b694 25be 3485 3dbe d28a f7bd 4091 533e
00000070: 5a52 053e 13ab 81be f2fd 163d 0441 4b3e
00000080: 6e96 a03d 336c 123e 5505 403d 64e6 863e
00000090: 6a25 3c3e 171a 42be fd03 1d3e 8d70 053e
000000a0: b6b0 0a3e 8330 c1bd 5ce9 6d3e 86c6 b03e
000000b0: c3b7 733e 3fb0 80be b3ee a3bd 4755 25be
000000c0: bc8e 9ebe 3ff7 7e3e 03b4 19be 3775 783e
000000d0: e129 6cbe b89f 903e 56e2 c83c fb16 2c3e
000000e0: 1a41 46be 1c28 083e 3795 8bbe f57a 543e
000000f0: 6d8d 613b 8d29 f43d f699 1cbe 4cfd 5ebe
00000100: 723b ddbd 4f56 4bbe 2f6f 3cbe 5191 b53c
00000110: f1c7 b6bc 7c14 9d3e 4c0d 56be fe64 c0bd
00000120: 9d31 873e 3d0f 353e 61dc 913e fba5 4a3e
00000130: 4d78 5b3e 48e6 5dbe 5b46 133e 4d25 8cbe
00000140: 222d 12be 5353 20be 198c 593e b59a 6abe
00000150: cbef da3d 2c63 9dbe e80d 243d b75b 87bd
00000160: ab49 ce3d 2b33 cabc ee35 29be cd0d 673d
00000170: 7a5b 4b3e 848e 67be 6995 7fbe 129a 9cbd
00000180: eace 2dbe 02dd df3d 3bee 21bd 43c3 3a3e
00000190: ffaf 0abe 900d 4ebe ce8b 843e 1e85 c93d
000001a0: 2564 8b3e 21e6 793e aee3 47be 8022 613e
000001b0: 8f20 48be dae2 6fbe 567b 313d 9aac ecbd
000001c0: 7591 41be 198c 013d 0f8d 353e 2a54 63be
000001d0: 863c 6d3e 4ec0 aabd 3c15 0f3e f93a 05be
000001e0: 2d02 c53d dceb 323d 33c7 f63d a8c3 53be
000001f0: ed27 7bbe 4212 85be a519 82be e6bd 77bd
00000200: 7629 80be 5a02 9ebd 0f9d 43be 9392 e2bd
00000210: 3cdb 88bd 848b 3e3e 4956 4cbe 1ffc 53be
00000220: 7a07 f13d 0291 8fbd 7762 393e e69b 233e
00000230: bb2e 4b3e 39fd 663e 768e 81be 4443 fbbd
00000240: d73d 66be 0853 4dbe 0c1f 69be 8099 173d
00000250: 4281 29be ba3c 23be 57b7 90be b789 873e
00000260: cd35 313e d6c9 dc3d d361 083e e604 febd
00000270: 8b1f 3bbe c7c1 2abd 121d 6a3d f04e 473e
00000280: dd21 83be 22c1 7bbe 5560 383e b385 3e3c
00000290: dbdf 08be da0b eebd bbe5 dc3d 0aa1 763d
000002a0: 0db0 dbbd 1a0f 69be d902 75be a838 3fbe
000002b0: 29e7 583d 4f7d 85be bfd7 30be 48cf 123e
000002c0: 02b7 2f3e b084 763e 3b3b 66be 841b e53d
000002d0: 5ab1 30be 5ac9 cfbd 9062 583d 6d04 583b
000002e0: 5abc 66be 95ae 903d dcef 143e f96d bdbe
000002f0: 121c ecbd afde 403e 5525 243e 0ab1 28be
00000300: 1b12 e53d 18c1 443e addf 4bbe 9960 37be
00000310: 2593 c53e 9b56 74be 55df bbbe 7a90 e23d
00000320: 7127 643d 7df9 433e 3076 3b3e 17b2 523e
00000330: 2751 68be 2a06 42be e114 92be 74c8 713e
00000340: f424 093e d694 8b3e 66ab 74be 259a 93be
00000350: 0671 a03d a603 d8be 83ff 3bbe 8afc 113e
00000360: b3b4 b5be ebf3 413e 785d 023b cca6 563e
00000370: a44a 9abe 181e 05be 9565 113d 9bbd 83be
00000380: b17c acbe 0765 99be 77b1 b33d dd49 0d3e
00000390: 83d2 83be 1757 67be 4e35 a83d 573b c33e
000003a0: db0e 99be ff85 213d 1ce9 df3e e7bb 463e
000003b0: 8285 a93e 8d0f 85be 15eb 833c 671d 89be
000003c0: 05cc 52bd dc0e 39be 85c9 933e 64e2 c43d
000003d0: da39 243e 14b1 d93d cb2b 283e d2c5 85be
000003e0: b582 75be 7021 56be ed53 aebe 2ef7 a53d
000003f0: ca5a 693e 6b6d 003e 63ab 563e 08e4 d13d
